model_zoo/kws_pdm_record/kwt1_relu_mfcc_fvp_aligned_vela.tflite (tflite, 903456 bytes, 74 tensors)

kws_transformer_1/transformer_block_12/layer_normalization_24/gamma i1 [64] scale=0.0050229235 zero_point=-128
0.919195 0.82375944 0.94933254 0.9644013 0.9543555 0.9443096 1.0096077 0.9895159
0.9543555 0.9443096 0.9392867 0.92421794 1.0849515 0.91417205 0.93426377 0.9292408
1.049791 1.0045847 1.120112 0.97444713 1.0296993 0.8488741 1.110066 1.1904329
1.0799285 0.97444713 1.0045847 1.0296993 0.984493 0.90914917 0.9995618 0.8036678
0.9292408 0.96942425 1.0045847 0.87901163 0.91417205 0.984493 0.9443096 0.86896574
1.2808455 1.1552724 1.1000203 1.0096077 0.86896574 1.0045847 0.8840345 0.984493
0.86896574 0.96942425 0.87901163 0.9794701 1.0045847 1.054814 0.8991033 1.0698828
0.9392867 0.9543555 0.94933254 1.0246764 1.0246764 1.0347222 1.1050432 1.0296993
00000000: 3724 3d40 3e3c 4945 3e3c 3b38 5836 3a39
00000010: 5148 5f42 4d29 5d6d 5742 484d 4435 4720
00000020: 3941 482f 3644 3c2d 7f66 5b49 2d48 3044
00000030: 2d41 2f43 4852 3355 3b3e 3d4c 4c4e 5c4d

kws_transformer_1/transformer_block_12/layer_normalization_25/gamma i1 [64] scale=0.004589196 zero_point=-128
1.0050339 0.8765364 0.92701757 0.9866771 1.0233907 0.9545527 0.9545527 1.0463367
0.9683203 0.9866771 0.9683203 1.0142123 0.9912663 0.867358 0.9774987 0.90866077
0.9729095 0.9637311 1.0830503 0.9958555 1.0188015 0.94078517 1.101407 1.1059963
1.0601043 0.89948237 1.0509259 1.0830503 0.9774987 1.0463367 1.0692827 0.94537437
0.9545527 0.90866077 0.9729095 0.9545527 0.9499635 0.9820879 1.0601043 0.9729095
1.1702449 1.0738719 1.078461 0.9912663 0.867358 0.9545527 0.9866771 1.009623
0.9866771 0.9729095 0.92701757 0.90407157 1.0188015 1.009623 0.9866771 1.0646935
0.9912663 1.0142123 0.7755741 1.0417475 1.009623 0.89948237 1.0417475 0.94537437
00000000: 5b3f 4a57 5f50 5064 5357 535d 583d 5546
00000010: 5452 6c59 5e4d 7071 6744 656c 5564 694e
00000020: 5046 5450 4f56 6754 7f6a 6b58 3d50 575c
00000030: 5754 4a45 5e5c 5768 585d 2963 5c44 634e

kws_transformer_1/transformer_block_13/layer_normalization_26/gamma i1 [64] scale=0.0044069425 zero_point=-128
1.0224106 0.9298649 0.8637607 1.0091898 1.0224106 1.0312246 0.9739343 0.9827482
0.99156207 0.99156207 0.9430857 0.9783412 1.0444454 0.87698156 1.0091898 1.0047829
0.9739343 0.9739343 1.079701 0.96952736 1.0400385 0.92545795 1.075294 1.0841079
1.0885148 0.9430857 1.0400385 0.96952736 0.995969 1.0180037 1.0444454 0.96071345
0.9518996 0.9827482 0.9518996 0.9827482 0.9783412 1.0180037 1.0312246 1.000376
1.1237704 1.0047829 1.0224106 0.9518996 1.000376 0.96512043 1.0091898 1.0532593
0.9827482 0.9518996 0.9298649 0.9563065 1.0047829 1.0091898 0.9739343 1.06648
0.9783412 0.99156207 0.846133 1.0135968 0.9739343 0.8902024 1.06648 0.9430857
00000000: 6853 4465 686a 5d5f 6161 565e 6d47 6564
00000010: 5d5d 755c 6c52 7476 7756 6c5c 6267 6d5a
00000020: 585f 585f 5e67 6a63 7f64 6858 635b 656f
00000030: 5f58 5359 6465 5d72 5e61 4066 5d4a 7256

kws_transformer_1/transformer_block_13/layer_normalization_27/gamma i1 [64] scale=0.0044018333 zero_point=-128
1.0476363 0.99481434 0.924385 1.0212253 1.0344309 0.99481434 0.99481434 0.9551978
0.99921614 1.0168235 0.99481434 1.0212253 1.0608418 0.9640015 1.0520382 0.977207
0.9551978 1.0212253 0.9816088 0.9595997 0.9904125 0.9375905 1.0608418 1.0432345
0.9816088 0.9111795 0.9551978 0.9595997 1.0124216 1.0124216 1.0696455 0.977207
0.9287868 0.9551978 0.99921614 1.0168235 1.0256271 1.0080198 0.97280514 0.94199234
1.1224675 1.0300289 1.0124216 0.99921614 0.950796 0.9375905 1.0168235 0.950796
1.0344309 0.950796 0.99921614 0.9067777 1.0300289 0.96840334 0.9331887 1.05644
1.0520382 0.94199234 0.8803667 1.0124216 0.9816088 0.9287868 0.9904125 1.0124216
00000000: 6e62 5268 6b62 6259 6367 6268 715b 6f5e
00000010: 5968 5f5a 6155 716d 5f4f 595a 6666 735e
00000020: 5359 6367 6965 5d56 7f6a 6663 5855 6758
00000030: 6b58 634e 6a5c 5470 6f56 4866 5f53 6166

kws_transformer_1/transformer_block_14/layer_normalization_28/gamma i1 [64] scale=0.0043794187 zero_point=-128
1.0598193 0.9590927 0.9021602 1.0160252 1.024784 1.0291634 0.9853692 0.99412805
0.9809898 1.0116457 0.9196779 0.9897486 1.1123724 0.9021602 1.0072663 0.99412805
1.0291634 1.0028869 1.0160252 0.972231 1.0510604 0.99412805 1.0685781 1.0729576
1.0335428 0.9328162 0.9547133 0.9678515 1.0072663 1.0028869 1.0335428 0.9678515
0.94595444 0.99850744 0.99412805 1.0204046 0.9809898 1.0072663 0.9634721 0.9678515
1.1167518 1.0116457 0.99850744 0.9547133 0.9897486 0.9678515 1.0379223 1.046681
0.9634721 0.9590927 0.99412805 0.9809898 1.0335428 0.9897486 0.9634721 1.0641987
0.97661036 0.9634721 0.9021602 0.972231 0.9547133 0.9634721 1.0510604 0.9634721
00000000: 725b 4e68 6a6b 6163 6067 5262 7e4e 6663
00000010: 6b65 685e 7063 7475 6c55 5a5d 6665 6c5d
00000020: 5864 6369 6066 5c5d 7f67 645a 625d 6d6f
00000030: 5c5b 6360 6c62 5c73 5f5c 4e5e 5a5c 705c

kws_transformer_1/transformer_block_14/layer_normalization_29/gamma i1 [64] scale=0.004483381 zero_point=-128
1.0177275 1.035661 0.96392685 1.0042773 1.0535945 0.8966762 1.0401443 0.9818604
1.0894616 1.0311776 0.96392685 1.0222108 0.8921928 0.94150996 1.0760114 0.9818604
0.9863438 0.977377 0.88322604 0.99531054 0.9863438 1.013244 1.0222108 1.1118784
1.071528 0.9863438 0.99531054 1.0311776 1.0042773 0.99531054 1.0401443 0.99082714
0.9235765 1.035661 1.013244 1.013244 1.0222108 1.0042773 1.013244 1.0311776
1.1432621 1.0401443 1.0087607 1.0311776 0.96392685 0.96841025 0.99082714 1.035661
1.0311776 1.0446278 0.977377 0.9549601 1.0177275 1.0535945 1.013244 0.99979395
1.0087607 0.94150996 0.9056429 0.99979395 0.99082714 0.99531054 1.0042773 0.96841025
00000000: 6367 5760 6b48 685b 7366 5764 4752 705b
00000010: 5c5a 455e 5c62 6478 6f5c 5e66 605e 685d
00000020: 4e67 6262 6460 6266 7f68 6166 5758 5d67
00000030: 6669 5a55 636b 625f 6152 4a5f 5d5e 6058

kws_transformer_1/transformer_block_15/layer_normalization_30/gamma i1 [64] scale=0.0045198137 zero_point=-128
1.0169581 0.9582005 0.97627974 1.0033987 1.0169581 0.994359 1.0169581 0.96724015
1.0214779 0.99887884 0.99887884 0.98079956 0.9356014 0.9717599 1.0757157 1.0033987
1.0124383 0.9853194 0.94464105 0.9717599 0.90848255 0.9582005 1.0169581 1.1073544
1.0576364 0.96724015 1.0079185 0.98079956 1.0079185 0.98079956 1.0124383 1.0259978
0.9130024 1.0124383 0.96272033 0.9898392 1.0124383 1.0169581 0.994359 1.0305176
1.1525525 1.0395571 0.99887884 0.9582005 0.9356014 0.9898392 1.0169581 0.9898392
1.0169581 1.0350373 1.0259978 0.9898392 1.0259978 1.066676 1.0169581 0.99887884
1.0033987 0.96724015 0.97627974 0.99887884 0.9717599 1.0124383 0.994359 0.9491609
00000000: 6154 585e 615c 6156 625d 5d59 4f57 6e5e
00000010: 605a 5157 4954 6175 6a56 5f59 5f59 6063
00000020: 4a60 555b 6061 5c64 7f66 5d54 4f5b 615b
00000030: 6165 635b 636c 615d 5e56 585d 5760 5c52

kws_transformer_1/transformer_block_15/layer_normalization_31/gamma i1 [64] scale=0.004843401 zero_point=-128
1.0171142 1.002584 0.98805374 1.0413312 1.026801 0.97352356 1.026801 0.9589934
1.075235 1.0316443 0.96868014 0.9638367 0.89118576 0.9832104 1.0607048 1.0171142
1.0122708 0.94446313 0.95414996 0.95414996 1.002584 0.99289715 1.0364878 1.1285124
1.0800784 0.92993295 0.978367 1.0413312 0.98805374 1.0171142 1.0171142 1.002584
0.89118576 1.0219575 1.0316443 0.978367 0.97352356 1.0171142 0.9589934 1.075235
1.2350672 1.0461745 1.002584 0.978367 0.95414996 0.978367 0.95414996 1.0655482
0.98805374 1.0316443 1.0122708 0.99289715 1.0074273 1.0316443 0.9638367 0.978367
0.99774057 0.9396198 0.9589934 0.9832104 0.96868014 0.9832104 1.0219575 0.9638367
00000000: 524f 4c57 5449 5446 5e55 4847 384b 5b52
00000010: 5143 4545 4f4d 5669 5f40 4a57 4c52 524f
00000020: 3853 554a 4952 465e 7f58 4f4a 454a 455c
00000030: 4c55 514d 5055 474a 4e42 464b 484b 5347

kws_transformer_1/transformer_block_16/layer_normalization_32/gamma i1 [64] scale=0.0046100793 zero_point=-128
1.0188276 0.99577713 1.0142175 1.0280477 1.0188276 0.96811664 0.99116707 0.94967633
1.0234376 1.0049973 0.9635066 0.94967633 0.96811664 0.99577713 1.0372678 0.986557
1.0557082 0.9542864 1.0142175 0.94967633 0.97272676 1.0096074 1.041878 1.0833687
1.0372678 1.0188276 0.97272676 0.9819469 1.0142175 1.0188276 1.0741485 0.9588965
0.92201585 0.99116707 1.0280477 0.986557 0.96811664 0.99577713 0.9404562 1.0280477
1.1755702 1.0234376 1.041878 0.9542864 0.9542864 0.931236 1.0096074 1.0188276
0.9635066 1.0142175 1.0510981 1.0142175 1.0372678 1.0695384 0.986557 1.0003872
1.0049973 0.92201585 1.0049973 1.0096074 0.9635066 0.99577713 0.9404562 0.9635066
00000000: 5d58 5c5f 5d52 574e 5e5a 514e 5258 6156
00000010: 654f 5c4e 535b 626b 615d 5355 5c5d 6950
00000020: 4857 5f56 5258 4c5f 7f5e 624f 4f4a 5b5d
00000030: 515c 645c 6168 5659 5a48 5a5b 5158 4c51

kws_transformer_1/transformer_block_16/layer_normalization_33/gamma i1 [64] scale=0.0042163134 zero_point=-128
1.0076989 0.99504995 1.0034826 1.0287805 1.0034826 1.0203478 1.062511 0.9444542
0.91494 0.95710313 1.0372131 1.0414294 0.9444542 1.0245641 1.0667273 1.0245641
0.9107237 1.0329968 0.9402379 0.9781847 0.99504995 0.99504995 1.0582947 1.0245641
1.0329968 0.99083364 1.0161315 0.9528868 0.99504995 1.0329968 0.9528868 0.982401
0.9065074 0.9866173 1.0751599 1.0076989 0.982401 0.9697521 0.9781847 1.0709436
1.049862 0.96553576 1.0161315 0.9739684 0.96131945 0.99504995 0.9528868 1.0287805
1.0287805 1.0076989 1.0667273 1.0076989 1.0034826 1.0076989 1.0076989 0.99083364
1.0203478 0.95710313 0.92758894 0.9866173 0.99504995 1.0119152 0.9528868 0.99926627
00000000: 6f6c 6e74 6e72 7c60 5963 7677 6073 7d73
00000010: 5875 5f68 6c6c 7b73 756b 7162 6c75 6269
00000020: 576a 7f6f 6966 687e 7965 7167 646c 6274
00000030: 746f 7d6f 6e6f 6f6b 7263 5c6a 6c70 626d

kws_transformer_1/transformer_block_17/layer_normalization_34/gamma i1 [64] scale=0.0042393166 zero_point=-128
1.017436 0.96232486 1.0131967 1.0259145 1.0259145 1.0386325 1.0386325 0.9538462
0.96232486 0.9496069 1.0301539 1.0259145 0.99623936 1.0640684 1.0386325 1.0555898
0.98352146 1.0471112 0.9877608 0.9538462 1.017436 0.9750428 1.0428718 1.0810257
1.0640684 1.0216753 1.0047181 0.9496069 0.97928214 1.0131967 1.0259145 0.99623936
0.96232486 0.9708035 0.97928214 0.97928214 0.9750428 0.98352146 1.0259145 1.0471112
1.0471112 0.9665642 1.0131967 0.97928214 1.0131967 0.97928214 0.9708035 1.0259145
0.99623936 1.0047181 1.0047181 1.0004787 1.0047181 1.0259145 0.99623936 0.9920001
1.0513505 0.95808554 0.9708035 0.9708035 0.9665642 1.0047181 1.0004787 0.98352146
00000000: 7063 6f72 7275 7561 6360 7372 6b7b 7579
00000010: 6877 6961 7066 767f 7b71 6d60 676f 726b
00000020: 6365 6767 6668 7277 7764 6f67 6f67 6572
00000030: 6b6d 6d6c 6d72 6b6a 7862 6565 646d 6c68

kws_transformer_1/transformer_block_17/layer_normalization_35/gamma i1 [64] scale=0.00437373 zero_point=-128
0.9753418 1.036574 1.0453215 0.98846304 1.0278265 0.9622206 1.0103316 0.9447257
1.0190791 1.005958 1.0190791 1.0453215 0.9316045 1.0409478 1.0190791 1.0846851
1.0453215 1.005958 0.9840893 0.9578469 1.0322003 0.97096807 1.005958 1.0671902
1.0671902 0.96659434 0.9928368 1.005958 1.0103316 1.0015842 0.94035196 0.9753418
0.92285705 1.0453215 1.0103316 1.005958 1.0190791 1.0103316 1.0278265 1.0453215
1.1153011 0.9753418 1.005958 0.9447257 0.96659434 1.0015842 0.9840893 1.0540689
0.9928368 0.9797156 0.96659434 0.9141096 1.0103316 1.005958 0.9753418 0.98846304
0.95347315 0.9972105 1.0015842 1.0015842 1.0147054 1.005958 0.98846304 0.9840893
00000000: 5f6d 6f62 6b5c 6758 6966 696f 556e 6978
00000010: 6f66 615b 6c5e 6674 745d 6366 6765 575f
00000020: 536f 6766 6967 6b6f 7f5f 6658 5d65 6171
00000030: 6360 5d51 6766 5f62 5a64 6565 6866 6261

kws_transformer_1/transformer_block_18/layer_normalization_36/gamma i1 [64] scale=0.004243467 zero_point=-128
0.9759974 1.0438929 1.0141886 1.0184321 1.0099452 0.9887278 1.026919 0.9378062
1.0141886 0.9759974 1.0438929 1.026919 0.9929713 0.9929713 1.0014582 1.026919
1.0438929 0.9844843 0.9759974 1.0057017 1.0481364 1.0141886 1.026919 1.0014582
1.0226755 0.9844843 1.0014582 0.9844843 1.0014582 1.0014582 1.0396494 1.026919
0.92931926 1.035406 1.0311625 1.0184321 1.0481364 0.9887278 1.0141886 1.0099452
1.0820841 0.9759974 1.0014582 0.9887278 0.97175395 0.93356276 0.9929713 1.0226755
0.9378062 1.0396494 0.9802409 0.99721473 1.0226755 1.0523798 0.96751046 0.99721473
1.0523798 0.9929713 0.99721473 1.0099452 1.026919 1.0057017 0.99721473 1.0566233
00000000: 6676 6f70 6e69 725d 6f66 7672 6a6a 6c72
00000010: 7668 666d 776f 726c 7168 6c68 6c6c 7572
00000020: 5b74 7370 7769 6f6e 7f66 6c69 655c 6a71
00000030: 5d75 676b 7178 646b 786a 6b6e 726d 6b79

kws_transformer_1/transformer_block_18/layer_normalization_37/gamma i1 [64] scale=0.004199121 zero_point=-128
0.99939084 1.0455812 1.0707759 1.00359 1.0119882 0.9741961 0.98679346 1.0077891
0.969997 0.969997 1.0245856 1.0119882 0.9909926 0.9448023 1.0119882 1.0203865
1.0371829 1.0413821 0.9783952 1.0413821 1.0497802 0.9951917 0.9741961 0.9909926
1.0203865 0.9573996 0.9951917 1.0119882 1.0077891 0.9825944 0.99939084 1.0161873
1.0329838 0.99939084 1.00359 1.0077891 1.0077891 0.9490014 1.0455812 0.99939084
1.0413821 0.98679346 1.0245856 1.00359 0.9909926 0.9951917 1.0161873 1.0161873
0.96159875 1.0203865 1.0329838 0.9825944 1.0203865 1.0287846 1.0077891 0.9909926
1.0371829 1.0245856 1.0203865 0.9909926 1.0497802 1.0665767 0.99939084 0.9909926
00000000: 6e79 7f6f 7168 6b70 6767 7471 6c61 7173
00000010: 7778 6978 7a6d 686c 7364 6d71 706a 6e72
00000020: 766e 6f70 7062 796e 786b 746f 6c6d 7272
00000030: 6573 766a 7375 706c 7774 736c 7a7e 6e6c

kws_transformer_1/transformer_block_19/layer_normalization_38/gamma i1 [64] scale=0.0042241695 zero_point=-128
0.9546623 1.0264732 1.0095766 1.0095766 1.0264732 1.0138007 1.0138007 1.0138007
1.0349215 0.971559 1.0138007 0.97578317 1.0391457 0.9673348 1.0138007 1.0264732
1.0095766 1.0180248 0.996904 1.0475941 1.0771632 1.0264732 0.99267983 0.99267983
1.0264732 0.98845565 1.0011282 0.9588865 0.99267983 0.996904 1.0602665 1.0475941
1.0475941 0.98845565 1.0053524 0.99267983 1.0011282 0.9631106 1.0475941 1.0391457
0.99267983 0.996904 0.9842315 0.9419898 0.99267983 1.0053524 1.0011282 1.0180248
0.94621396 1.0433699 1.0095766 1.0138007 1.022249 1.0264732 0.996904 0.971559
1.0475941 0.98000735 1.0391457 0.98000735 1.0349215 1.0306973 1.0391457 0.9631106
00000000: 6273 6f6f 7370 7070 7566 7067 7665 7073
00000010: 6f71 6c78 7f73 6b6b 736a 6d63 6b6c 7b78
00000020: 786a 6e6b 6d64 7876 6b6c 695f 6b6e 6d71
00000030: 6077 6f70 7273 6c66 7868 7668 7574 7664

kws_transformer_1/transformer_block_19/layer_normalization_39/gamma i1 [64] scale=0.0042477106 zero_point=-128
1.0194505 1.0194505 1.0449368 0.9897166 1.0321937 0.9642303 1.0152029 1.0024596
1.0236982 1.0661753 0.9642303 1.0024596 0.94723946 1.0024596 0.9897166 1.0152029
1.0024596 1.0067074 1.0152029 1.0321937 1.0067074 0.98122114 0.938744 0.98546886
0.99396425 1.0109551 0.97272575 1.0194505 0.98546886 0.98546886 1.0109551 1.0831662
1.0236982 1.0236982 1.0364413 1.0491846 1.0364413 0.968478 0.98546886 1.0831662
1.0194505 1.0746708 0.94299173 1.027946 1.0321937 1.0449368 0.98546886 0.94723946
0.99396425 1.0194505 0.998212 0.98122114 1.0194505 1.0406891 1.0236982 0.9302486
1.0152029 0.9599826 1.027946 1.0067074 1.0109551 1.0449368 0.98122114 0.9599826
00000000: 7070 7669 7363 6f6c 717b 636c 5f6c 696f
00000010: 6c6d 6f73 6d67 5d68 6a6e 6570 6868 6e7f
00000020: 7171 7477 7464 687f 707d 5e72 7376 685f
00000030: 6a70 6b67 7075 715b 6f62 726d 6e76 6762

kws_transformer_1/transformer_block_20/layer_normalization_40/gamma i1 [64] scale=0.004255538 zero_point=-128
0.99579585 1.0085624 0.99579585 0.9872848 1.0340956 1.0170735 1.0340956 1.0255846
1.0426068 1.0468624 1.0340956 1.0255846 0.9532405 1.0043069 1.0255846 1.012818
0.98302925 1.0511179 1.0511179 1.0340956 0.9915403 1.0468624 0.9489849 0.98302925
1.0170735 0.9660071 1.0170735 1.0000514 0.98302925 0.99579585 1.0000514 1.0298401
0.9660071 1.0340956 1.012818 1.0085624 1.0170735 1.0043069 1.0383513 1.0723956
0.98302925 1.0851622 0.98302925 1.0383513 1.0170735 1.0085624 0.9915403 1.012818
1.0085624 1.0340956 1.021329 0.9660071 1.0000514 0.9660071 1.0298401 0.9787737
1.012818 0.9532405 1.0340956 0.95749605 0.9660071 1.06814 1.012818 0.97026265
00000000: 6a6d 6a68 736f 7371 7576 7371 606c 716e
00000010: 6777 7773 6976 5f67 6f63 6f6b 676a 6b72
00000020: 6373 6e6d 6f6c 747c 677f 6774 6f6d 696e
00000030: 6d73 7063 6b63 7266 6e60 7361 637b 6e64

kws_transformer_1/transformer_block_20/layer_normalization_41/gamma i1 [64] scale=0.004374633 zero_point=-128
1.0192895 1.0105402 0.9886671 0.9974163 1.0717851 1.0542866 0.9886671 1.001791
1.0411627 1.084909 0.9799178 1.036788 0.95804465 1.0324134 1.0149149 1.036788
0.9449207 0.9930417 0.9974163 1.0586612 0.93179685 1.0236641 0.9624193 1.0105402
1.036788 0.9755432 0.9930417 1.0586612 1.0455374 1.0105402 0.8924251 1.0236641
0.9624193 1.0149149 1.0192895 1.0805343 0.9930417 1.0192895 0.9974163 1.0892836
1.0061656 1.0761597 1.0149149 1.1155314 1.0105402 0.9930417 0.9274222 1.0236641
1.0411627 0.9886671 0.9974163 1.001791 0.9930417 0.9667939 0.9974163 1.001791
1.0105402 0.9624193 1.0455374 0.9930417 0.9361715 1.0542866 0.9886671 0.93179685
00000000: 6967 6264 7571 6265 6e78 606d 5b6c 686d
00000010: 5863 6472 556a 5c67 6d5f 6372 6f67 4c6a
00000020: 5c68 6977 6369 6479 6676 687f 6763 546a
00000030: 6e62 6465 635d 6465 675c 6f63 5671 6255

kws_transformer_1/transformer_block_21/layer_normalization_42/gamma i1 [64] scale=0.0042485325 zero_point=-128
1.0323933 1.0663817 1.0323933 0.99840516 1.0706302 1.0621331 0.96016836 0.9771625
1.0833758 1.0238963 1.0069022 1.0196478 1.0408905 1.0026537 0.99840516 0.96016836
0.9686654 1.0791272 0.98565954 1.0153992 0.94742274 1.0153992 0.96016836 0.981411
0.99840516 0.99840516 0.981411 1.0323933 1.0323933 1.0111507 0.9686654 1.0833758
1.045139 0.99840516 1.0153992 1.0706302 0.9941566 1.0069022 1.0026537 0.9941566
0.9431742 1.0238963 1.036642 1.0536361 1.0153992 1.0323933 0.99840516 1.0153992
1.0706302 1.0196478 0.9771625 1.0408905 1.0153992 1.0153992 0.99840516 0.96016836
0.98565954 0.9686654 0.99840516 0.981411 0.9729139 1.0408905 0.99840516 0.95167124
00000000: 737b 736b 7c7a 6266 7f71 6d70 756c 6b62
00000010: 647e 686f 5f6f 6267 6b6b 6773 736e 647f
00000020: 766b 6f7c 6a6d 6c6a 5e71 7478 6f73 6b6f
00000030: 7c70 6675 6f6f 6b62 6864 6b67 6575 6b60

kws_transformer_1/transformer_block_21/layer_normalization_43/gamma i1 [64] scale=0.004327346 zero_point=-128
1.1034733 1.0731819 1.0731819 0.98230755 1.0558724 1.0472177 1.0169263 1.025581
1.0169263 1.0342357 0.9736529 0.98230755 1.0299084 1.0039443 1.012599 1.0342357
0.9779802 1.0472177 0.9996169 0.9996169 0.9044153 0.98230755 0.9866349 1.0472177
0.99096227 1.0212537 0.92172474 1.0169263 0.98230755 0.9736529 0.9476888 1.0428904
1.0731819 1.012599 1.0515451 1.0991459 0.99096227 0.96932554 0.98230755 1.0169263
0.9390341 1.0082717 1.0472177 1.0861639 1.0472177 1.0472177 1.0342357 0.9952896
1.0731819 0.9563435 0.9779802 1.0082717 1.0212537 0.99096227 1.0039443 0.9520161
0.98230755 0.9952896 1.012599 1.0082717 1.0688545 1.0299084 0.9173974 1.0428904
00000000: 7f78 7863 7472 6b6d 6b6f 6163 6e68 6a6f
00000010: 6272 6767 5163 6472 656c 556b 6361 5b71
00000020: 786a 737e 6560 636b 5969 727b 7272 6f66
00000030: 785d 6269 6c65 685c 6366 6a69 776e 5471

kws_transformer_1/transformer_block_22/layer_normalization_44/gamma i1 [64] scale=0.004314087 zero_point=-128
0.99223995 1.0483232 1.0569513 1.0310668 1.0526372 1.0655794 1.0181245 1.0051823
1.0785217 1.044009 0.9620414 1.0310668 1.0612653 0.9620414 1.0008682 1.0742077
0.9534132 1.0181245 1.044009 1.0181245 0.944785 1.0396949 0.9275287 0.9620414
0.9965541 1.0181245 0.97066957 0.97066957 1.0310668 0.97498363 0.97066957 1.0569513
1.0655794 0.9836118 1.0267527 1.1000922 0.9836118 0.99223995 1.044009 1.0181245
0.93615687 0.9792977 1.0181245 1.0310668 0.9792977 1.0224386 1.0526372 1.0181245
1.0698936 0.97066957 0.96635544 0.9879259 1.0224386 1.0094963 0.97066957 0.94047093
0.94047093 1.0094963 1.0526372 1.0008682 1.0483232 0.9620414 0.93184274 1.0396949
00000000: 6673 756f 7477 6c69 7a72 5f6f 765f 6879
00000010: 5d6c 726c 5b71 575f 676c 6161 6f62 6175
00000020: 7764 6e7f 6466 726c 5963 6c6f 636d 746c
00000030: 7861 6065 6d6a 615a 5a6a 7468 735f 5871

kws_transformer_1/transformer_block_22/layer_normalization_45/gamma i1 [64] scale=0.0044834064 zero_point=-128
1.1343018 0.9370319 0.9728992 1.035667 0.981866 0.9953162 1.0222167 1.1432686
0.79356295 1.0401503 1.0446337 1.0087664 0.9549656 0.9728992 0.9953162 1.035667
0.9728992 0.838397 0.9504822 0.9190983 0.88323104 0.82494676 0.9459987 0.9549656
0.9325485 1.0536005 0.9190983 0.8921979 1.0042831 1.0132499 0.9415153 1.0715342
1.125335 0.9190983 0.9056481 1.0311835 0.9146149 0.9997996 1.0132499 1.0132499
0.86081403 1.0087664 1.0715342 1.0042831 0.9997996 1.0446337 1.0580839 1.0132499
1.0311835 0.9504822 1.102918 0.9146149 1.0536005 1.102918 1.0536005 0.9953162
0.9953162 0.9997996 0.9997996 1.0222167 1.0625674 1.0401503 0.8966813 1.1298184
00000000: 7d51 5967 5b5e 647f 3168 6961 5559 5e67
00000010: 593b 544d 4538 5355 506b 4d47 6062 526f
00000020: 7b4d 4a66 4c5f 6262 4061 6f60 5f69 6c62
00000030: 6654 764c 6b76 6b5e 5e5f 5f64 6d68 487c

kws_transformer_1/transformer_block_23/layer_normalization_46/gamma i1 [64] scale=0.004408731 zero_point=-128
1.0713216 1.000782 1.031643 1.0140082 1.0228256 1.0536867 0.9919645 1.0889566
0.88174623 1.0536867 1.0140082 1.0184169 1.0051907 0.98755574 0.95669466 0.9258335
0.9037899 0.9214248 1.0095994 0.93905973 0.89497244 0.88615495 0.9655121 0.88174623
0.95669466 1.097774 0.94346845 0.9037899 1.031643 1.000782 0.9214248 1.0933653
1.049278 0.93024224 0.94346845 1.0051907 0.95669466 1.0272343 1.0360519 1.0272343
0.9258335 1.000782 1.0933653 1.0536867 1.0228256 1.0140082 1.0889566 1.0757304
0.98755574 0.9699209 1.0845479 0.9611034 1.0536867 1.0184169 1.031643 0.98755574
0.983147 0.9919645 1.0404606 0.9919645 1.0580955 1.0140082 0.99637324 1.1242265
00000000: 7363 6a66 686f 6177 486f 6667 6460 5952
00000010: 4d51 6555 4b49 5b48 5979 564d 6a63 5178
00000020: 6e53 5664 5969 6b69 5263 786f 6866 7774
00000030: 605c 765a 6f67 6a60 5f61 6c61 7066 627f

kws_transformer_1/transformer_block_23/layer_normalization_47/gamma i1 [64] scale=0.0054956125 zero_point=-128
1.3354338 1.2145303 1.1925479 1.3024602 1.2804778 1.2420084 1.220026 1.3519207
1.1430874 1.3739032 1.3299382 1.3519207 1.1925479 1.3134514 1.247504 1.2035391
1.1156093 1.0826356 1.2804778 1.1430874 1.1320962 1.1156093 1.1101137 1.2694865
1.1430874 1.3574163 1.1925479 1.1320962 1.3134514 1.176061 1.1540786 1.1705655
1.291469 1.220026 1.1540786 1.1925479 1.1705655 1.220026 1.3903899 1.3519207
1.0386708 1.3024602 1.2804778 1.2694865 1.2804778 1.2749821 1.3519207 1.1980436
1.2145303 1.3134514 1.3848944 1.0331751 1.220026 1.3244426 1.3024602 1.2420084
1.2090348 1.1046181 1.4013811 1.2529997 1.3903899 1.1705655 1.2145303 1.3793987
00000000: 735d 596d 6962 5e76 507a 7276 596f 635b
00000010: 4b45 6950 4e4b 4a67 5077 594e 6f56 5255
00000020: 6b5e 5259 555e 7d76 3d6d 6967 6968 765a
00000030: 5d6f 7c3c 5e71 6d62 5c49 7f64 7d55 5d7b

main_split_10_command_stream u1 [2580]
67 79 80 49 1 0 16 0
6 16 0 0 0 0 6 16
5 0 0 0 5 0 0 0
5 0 0 0 2 0 125 2
36 64 38 0 128 64 64 64
15 1 1 0 0 64 0 0
192 222 0 0 1 64 0 0
0 0 0 0 2 64 0 0
0 0 0 0 3 64 0 0
0 0 0 0 11 1 0 0
12 1 0 0 10 1 98 0
4 1 98 0 6 64 0 0
1 0 0 0 5 64 0 0
73 38 0 0 4 64 0 0
99 0 0 0 9 1 252 255
5 1 1 0 7 1 0 0
31 1 1 0 16 64 0 0
192 222 0 0 17 64 0 0
0 0 0 0 18 64 0 0
0 0 0 0 19 64 0 0
0 0 0 0 27 1 0 0
28 1 0 0 26 1 98 0
18 1 0 0 17 1 98 0
19 1 98 0 22 64 0 0
1 0 0 0 21 64 0 0
73 38 0 0 20 64 0 0
99 0 0 0 24 1 252 255
20 1 1 1 37 1 0 0
38 1 128 255 39 1 127 0
22 1 0 0 21 1 63 0
23 1 103 0 13 1 16 0
45 1 16 0 36 1 0 0
00000000: 434f 5031 0100 1000 0610 0000 0000 0610
00000010: 0500 0000 0500 0000 0500 0000 0200 7d02
00000020: 2440 2600 8040 4040 0f01 0100 0040 0000
00000030: c0de 0000 0140 0000 0000 0000 0240 0000
00000040: 0000 0000 0340 0000 0000 0000 0b01 0000
00000050: 0c01 0000 0a01 6200 0401 6200 0640 0000
00000060: 0100 0000 0540 0000 4926 0000 0440 0000
00000070: 6300 0000 0901 fcff 0501 0100 0701 0000
00000080: 1f01 0100 1040 0000 c0de 0000 1140 0000
00000090: 0000 0000 1240 0000 0000 0000 1340 0000
000000a0: 0000 0000 1b01 0000 1c01 0000 1a01 6200
000000b0: 1201 0000 1101 6200 1301 6200 1640 0000
000000c0: 0100 0000 1540 0000 4926 0000 1440 0000
000000d0: 6300 0000 1801 fcff 1401 0101 2501 0000
000000e0: 2601 80ff 2701 7f00 1601 0000 1501 3f00
000000f0: 1701 6700 0d01 1000 2d01 1000 2401 0000

main_split_11_command_stream u1 [2476]
67 79 80 49 1 0 16 0
6 16 0 0 0 0 6 16
5 0 0 0 5 0 0 0
5 0 0 0 2 0 99 2
48 1 0 0 48 64 0 0
0 69 2 0 49 1 1 0
49 64 0 0 48 37 0 0
50 64 0 0 32 4 0 0
16 0 0 0 15 1 1 0
0 64 0 0 208 87 0 0
1 64 0 0 0 0 0 0
2 64 0 0 0 0 0 0
3 64 0 0 0 0 0 0
11 1 0 0 12 1 0 0
10 1 98 0 4 1 63 0
6 64 0 0 1 0 0 0
5 64 0 0 192 24 0 0
4 64 0 0 64 0 0 0
9 1 16 0 5 1 1 0
7 1 0 0 0 1 0 0
1 1 0 0 3 1 0 0
2 1 0 0 31 1 1 0
16 64 0 0 128 49 0 0
17 64 0 0 0 0 0 0
18 64 0 0 0 0 0 0
19 64 0 0 0 0 0 0
27 1 0 0 28 1 0 0
26 1 98 0 18 1 0 0
17 1 98 0 19 1 15 0
22 64 0 0 48 6 0 0
21 64 0 0 192 24 0 0
20 64 0 0 16 0 0 0
00000000: 434f 5031 0100 1000 0610 0000 0000 0610
00000010: 0500 0000 0500 0000 0500 0000 0200 6302
00000020: 3001 0000 3040 0000 0045 0200 3101 0100
00000030: 3140 0000 3025 0000 3240 0000 2004 0000
00000040: 1000 0000 0f01 0100 0040 0000 d057 0000
00000050: 0140 0000 0000 0000 0240 0000 0000 0000
00000060: 0340 0000 0000 0000 0b01 0000 0c01 0000
00000070: 0a01 6200 0401 3f00 0640 0000 0100 0000
00000080: 0540 0000 c018 0000 0440 0000 4000 0000
00000090: 0901 1000 0501 0100 0701 0000 0001 0000
000000a0: 0101 0000 0301 0000 0201 0000 1f01 0100
000000b0: 1040 0000 8031 0000 1140 0000 0000 0000
000000c0: 1240 0000 0000 0000 1340 0000 0000 0000
000000d0: 1b01 0000 1c01 0000 1a01 6200 1201 0000
000000e0: 1101 6200 1301 0f00 1640 0000 3006 0000
000000f0: 1540 0000 c018 0000 1440 0000 1000 0000

main_split_12_command_stream u1 [3368]
67 79 80 49 1 0 16 0
6 16 0 0 0 0 6 16
5 0 0 0 5 0 0 0
5 0 0 0 2 0 66 3
36 64 38 0 0 79 29 69
15 1 1 0 0 64 0 0
64 74 0 0 1 64 0 0
0 0 0 0 2 64 0 0
0 0 0 0 3 64 0 0
0 0 0 0 11 1 0 0
12 1 0 0 10 1 98 0
4 1 63 0 6 64 0 0
1 0 0 0 5 64 0 0
192 24 0 0 4 64 0 0
64 0 0 0 9 1 128 255
5 1 1 0 7 1 0 0
31 1 1 0 16 64 0 0
0 99 0 0 17 64 0 0
0 0 0 0 18 64 0 0
0 0 0 0 19 64 0 0
0 0 0 0 27 1 0 0
28 1 0 0 26 1 98 0
18 1 0 0 17 1 98 0
19 1 63 0 22 64 0 0
48 6 0 0 21 64 0 0
192 24 0 0 20 64 0 0
16 0 0 0 24 1 54 0
20 1 65 1 37 1 0 0
38 1 128 255 39 1 127 0
22 1 0 0 21 1 63 0
23 1 47 0 13 1 16 0
45 1 16 0 141 1 8 0
00000000: 434f 5031 0100 1000 0610 0000 0000 0610
00000010: 0500 0000 0500 0000 0500 0000 0200 4203
00000020: 2440 2600 004f 1d45 0f01 0100 0040 0000
00000030: 404a 0000 0140 0000 0000 0000 0240 0000
00000040: 0000 0000 0340 0000 0000 0000 0b01 0000
00000050: 0c01 0000 0a01 6200 0401 3f00 0640 0000
00000060: 0100 0000 0540 0000 c018 0000 0440 0000
00000070: 4000 0000 0901 80ff 0501 0100 0701 0000
00000080: 1f01 0100 1040 0000 0063 0000 1140 0000
00000090: 0000 0000 1240 0000 0000 0000 1340 0000
000000a0: 0000 0000 1b01 0000 1c01 0000 1a01 6200
000000b0: 1201 0000 1101 6200 1301 3f00 1640 0000
000000c0: 3006 0000 1540 0000 c018 0000 1440 0000
000000d0: 1000 0000 1801 3600 1401 4101 2501 0000
000000e0: 2601 80ff 2701 7f00 1601 0000 1501 3f00
000000f0: 1701 2f00 0d01 1000 2d01 1000 8d01 0800

main_split_13_command_stream u1 [1468]
67 79 80 49 1 0 16 0
6 16 0 0 0 0 6 16
5 0 0 0 5 0 0 0
5 0 0 0 2 0 103 1
36 64 38 0 0 119 146 71
15 1 1 0 0 64 0 0
48 25 0 0 1 64 0 0
0 0 0 0 2 64 0 0
0 0 0 0 3 64 0 0
0 0 0 0 11 1 0 0
12 1 0 0 10 1 98 0
4 1 63 0 6 64 0 0
1 0 0 0 5 64 0 0
192 24 0 0 4 64 0 0
64 0 0 0 9 1 128 255
5 1 1 0 7 1 0 0
31 1 1 0 16 64 0 0
240 49 0 0 17 64 0 0
0 0 0 0 18 64 0 0
0 0 0 0 19 64 0 0
0 0 0 0 27 1 0 0
28 1 0 0 26 1 98 0
18 1 0 0 17 1 98 0
19 1 63 0 22 64 0 0
48 6 0 0 21 64 0 0
192 24 0 0 20 64 0 0
16 0 0 0 24 1 12 0
20 1 65 1 37 1 0 0
38 1 128 255 39 1 127 0
22 1 0 0 21 1 63 0
23 1 47 0 13 1 16 0
45 1 16 0 141 1 8 0
00000000: 434f 5031 0100 1000 0610 0000 0000 0610
00000010: 0500 0000 0500 0000 0500 0000 0200 6701
00000020: 2440 2600 0077 9247 0f01 0100 0040 0000
00000030: 3019 0000 0140 0000 0000 0000 0240 0000
00000040: 0000 0000 0340 0000 0000 0000 0b01 0000
00000050: 0c01 0000 0a01 6200 0401 3f00 0640 0000
00000060: 0100 0000 0540 0000 c018 0000 0440 0000
00000070: 4000 0000 0901 80ff 0501 0100 0701 0000
00000080: 1f01 0100 1040 0000 f031 0000 1140 0000
00000090: 0000 0000 1240 0000 0000 0000 1340 0000
000000a0: 0000 0000 1b01 0000 1c01 0000 1a01 6200
000000b0: 1201 0000 1101 6200 1301 3f00 1640 0000
000000c0: 3006 0000 1540 0000 c018 0000 1440 0000
000000d0: 1000 0000 1801 0c00 1401 4101 2501 0000
000000e0: 2601 80ff 2701 7f00 1601 0000 1501 3f00
000000f0: 1701 2f00 0d01 1000 2d01 1000 8d01 0800

main_split_14_command_stream u1 [2580]
67 79 80 49 1 0 16 0
6 16 0 0 0 0 6 16
5 0 0 0 5 0 0 0
5 0 0 0 2 0 125 2
36 64 38 0 128 64 64 64
15 1 1 0 0 64 0 0
192 222 0 0 1 64 0 0
0 0 0 0 2 64 0 0
0 0 0 0 3 64 0 0
0 0 0 0 11 1 0 0
12 1 0 0 10 1 98 0
4 1 98 0 6 64 0 0
1 0 0 0 5 64 0 0
73 38 0 0 4 64 0 0
99 0 0 0 9 1 43 0
5 1 1 0 7 1 0 0
31 1 1 0 16 64 0 0
192 222 0 0 17 64 0 0
0 0 0 0 18 64 0 0
0 0 0 0 19 64 0 0
0 0 0 0 27 1 0 0
28 1 0 0 26 1 98 0
18 1 0 0 17 1 98 0
19 1 98 0 22 64 0 0
1 0 0 0 21 64 0 0
73 38 0 0 20 64 0 0
99 0 0 0 24 1 43 0
20 1 1 1 37 1 0 0
38 1 128 255 39 1 127 0
22 1 0 0 21 1 63 0
23 1 103 0 13 1 16 0
45 1 16 0 36 1 0 0
00000000: 434f 5031 0100 1000 0610 0000 0000 0610
00000010: 0500 0000 0500 0000 0500 0000 0200 7d02
00000020: 2440 2600 8040 4040 0f01 0100 0040 0000
00000030: c0de 0000 0140 0000 0000 0000 0240 0000
00000040: 0000 0000 0340 0000 0000 0000 0b01 0000
00000050: 0c01 0000 0a01 6200 0401 6200 0640 0000
00000060: 0100 0000 0540 0000 4926 0000 0440 0000
00000070: 6300 0000 0901 2b00 0501 0100 0701 0000
00000080: 1f01 0100 1040 0000 c0de 0000 1140 0000
00000090: 0000 0000 1240 0000 0000 0000 1340 0000
000000a0: 0000 0000 1b01 0000 1c01 0000 1a01 6200
000000b0: 1201 0000 1101 6200 1301 6200 1640 0000
000000c0: 0100 0000 1540 0000 4926 0000 1440 0000
000000d0: 6300 0000 1801 2b00 1401 0101 2501 0000
000000e0: 2601 80ff 2701 7f00 1601 0000 1501 3f00
000000f0: 1701 6700 0d01 1000 2d01 1000 2401 0000

main_split_15_command_stream u1 [2476]
67 79 80 49 1 0 16 0
6 16 0 0 0 0 6 16
5 0 0 0 5 0 0 0
5 0 0 0 2 0 99 2
48 1 0 0 48 64 0 0
224 46 3 0 49 1 1 0
49 64 0 0 144 37 0 0
50 64 0 0 64 4 0 0
16 0 0 0 15 1 1 0
0 64 0 0 208 87 0 0
1 64 0 0 0 0 0 0
2 64 0 0 0 0 0 0
3 64 0 0 0 0 0 0
11 1 0 0 12 1 0 0
10 1 98 0 4 1 63 0
6 64 0 0 1 0 0 0
5 64 0 0 192 24 0 0
4 64 0 0 64 0 0 0
9 1 254 255 5 1 1 0
7 1 0 0 0 1 0 0
1 1 0 0 3 1 0 0
2 1 0 0 31 1 1 0
16 64 0 0 128 49 0 0
17 64 0 0 0 0 0 0
18 64 0 0 0 0 0 0
19 64 0 0 0 0 0 0
27 1 0 0 28 1 0 0
26 1 98 0 18 1 0 0
17 1 98 0 19 1 15 0
22 64 0 0 48 6 0 0
21 64 0 0 192 24 0 0
20 64 0 0 16 0 0 0
00000000: 434f 5031 0100 1000 0610 0000 0000 0610
00000010: 0500 0000 0500 0000 0500 0000 0200 6302
00000020: 3001 0000 3040 0000 e02e 0300 3101 0100
00000030: 3140 0000 9025 0000 3240 0000 4004 0000
00000040: 1000 0000 0f01 0100 0040 0000 d057 0000
00000050: 0140 0000 0000 0000 0240 0000 0000 0000
00000060: 0340 0000 0000 0000 0b01 0000 0c01 0000
00000070: 0a01 6200 0401 3f00 0640 0000 0100 0000
00000080: 0540 0000 c018 0000 0440 0000 4000 0000
00000090: 0901 feff 0501 0100 0701 0000 0001 0000
000000a0: 0101 0000 0301 0000 0201 0000 1f01 0100
000000b0: 1040 0000 8031 0000 1140 0000 0000 0000
000000c0: 1240 0000 0000 0000 1340 0000 0000 0000
000000d0: 1b01 0000 1c01 0000 1a01 6200 1201 0000
000000e0: 1101 6200 1301 0f00 1640 0000 3006 0000
000000f0: 1540 0000 c018 0000 1440 0000 1000 0000

main_split_16_command_stream u1 [3380]
67 79 80 49 1 0 16 0
6 16 0 0 0 0 6 16
5 0 0 0 5 0 0 0
5 0 0 0 2 0 69 3
36 64 38 0 128 195 216 70
15 1 1 0 0 64 0 0
64 74 0 0 1 64 0 0
0 0 0 0 2 64 0 0
0 0 0 0 3 64 0 0
0 0 0 0 11 1 0 0
12 1 0 0 10 1 98 0
4 1 63 0 6 64 0 0
1 0 0 0 5 64 0 0
192 24 0 0 4 64 0 0
64 0 0 0 9 1 128 255
5 1 1 0 7 1 0 0
31 1 1 0 16 64 0 0
0 99 0 0 17 64 0 0
0 0 0 0 18 64 0 0
0 0 0 0 19 64 0 0
0 0 0 0 27 1 0 0
28 1 0 0 26 1 98 0
18 1 0 0 17 1 98 0
19 1 63 0 22 64 0 0
48 6 0 0 21 64 0 0
192 24 0 0 20 64 0 0
16 0 0 0 24 1 20 0
20 1 65 1 37 1 0 0
38 1 128 255 39 1 127 0
22 1 0 0 21 1 63 0
23 1 47 0 13 1 16 0
45 1 16 0 141 1 8 0
00000000: 434f 5031 0100 1000 0610 0000 0000 0610
00000010: 0500 0000 0500 0000 0500 0000 0200 4503
00000020: 2440 2600 80c3 d846 0f01 0100 0040 0000
00000030: 404a 0000 0140 0000 0000 0000 0240 0000
00000040: 0000 0000 0340 0000 0000 0000 0b01 0000
00000050: 0c01 0000 0a01 6200 0401 3f00 0640 0000
00000060: 0100 0000 0540 0000 c018 0000 0440 0000
00000070: 4000 0000 0901 80ff 0501 0100 0701 0000
00000080: 1f01 0100 1040 0000 0063 0000 1140 0000
00000090: 0000 0000 1240 0000 0000 0000 1340 0000
000000a0: 0000 0000 1b01 0000 1c01 0000 1a01 6200
000000b0: 1201 0000 1101 6200 1301 3f00 1640 0000
000000c0: 3006 0000 1540 0000 c018 0000 1440 0000
000000d0: 1000 0000 1801 1400 1401 4101 2501 0000
000000e0: 2601 80ff 2701 7f00 1601 0000 1501 3f00
000000f0: 1701 2f00 0d01 1000 2d01 1000 8d01 0800

main_split_17_command_stream u1 [1452]
67 79 80 49 1 0 16 0
6 16 0 0 0 0 6 16
5 0 0 0 5 0 0 0
5 0 0 0 2 0 99 1
36 64 38 0 128 172 87 70
15 1 1 0 0 64 0 0
48 25 0 0 1 64 0 0
0 0 0 0 2 64 0 0
0 0 0 0 3 64 0 0
0 0 0 0 11 1 0 0
12 1 0 0 10 1 98 0
4 1 63 0 6 64 0 0
1 0 0 0 5 64 0 0
192 24 0 0 4 64 0 0
64 0 0 0 9 1 128 255
5 1 1 0 7 1 0 0
31 1 1 0 16 64 0 0
240 49 0 0 17 64 0 0
0 0 0 0 18 64 0 0
0 0 0 0 19 64 0 0
0 0 0 0 27 1 0 0
28 1 0 0 26 1 98 0
18 1 0 0 17 1 98 0
19 1 63 0 22 64 0 0
48 6 0 0 21 64 0 0
192 24 0 0 20 64 0 0
16 0 0 0 24 1 122 0
20 1 65 1 37 1 0 0
38 1 128 255 39 1 127 0
22 1 0 0 21 1 63 0
23 1 47 0 13 1 16 0
45 1 16 0 141 1 8 0
00000000: 434f 5031 0100 1000 0610 0000 0000 0610
00000010: 0500 0000 0500 0000 0500 0000 0200 6301
00000020: 2440 2600 80ac 5746 0f01 0100 0040 0000
00000030: 3019 0000 0140 0000 0000 0000 0240 0000
00000040: 0000 0000 0340 0000 0000 0000 0b01 0000
00000050: 0c01 0000 0a01 6200 0401 3f00 0640 0000
00000060: 0100 0000 0540 0000 c018 0000 0440 0000
00000070: 4000 0000 0901 80ff 0501 0100 0701 0000
00000080: 1f01 0100 1040 0000 f031 0000 1140 0000
00000090: 0000 0000 1240 0000 0000 0000 1340 0000
000000a0: 0000 0000 1b01 0000 1c01 0000 1a01 6200
000000b0: 1201 0000 1101 6200 1301 3f00 1640 0000
000000c0: 3006 0000 1540 0000 c018 0000 1440 0000
000000d0: 1000 0000 1801 7a00 1401 4101 2501 0000
000000e0: 2601 80ff 2701 7f00 1601 0000 1501 3f00
000000f0: 1701 2f00 0d01 1000 2d01 1000 8d01 0800

main_split_18_command_stream u1 [2580]
67 79 80 49 1 0 16 0
6 16 0 0 0 0 6 16
5 0 0 0 5 0 0 0
5 0 0 0 2 0 125 2
36 64 38 0 128 64 64 64
15 1 1 0 0 64 0 0
192 222 0 0 1 64 0 0
0 0 0 0 2 64 0 0
0 0 0 0 3 64 0 0
0 0 0 0 11 1 0 0
12 1 0 0 10 1 98 0
4 1 98 0 6 64 0 0
1 0 0 0 5 64 0 0
73 38 0 0 4 64 0 0
99 0 0 0 9 1 33 0
5 1 1 0 7 1 0 0
31 1 1 0 16 64 0 0
192 222 0 0 17 64 0 0
0 0 0 0 18 64 0 0
0 0 0 0 19 64 0 0
0 0 0 0 27 1 0 0
28 1 0 0 26 1 98 0
18 1 0 0 17 1 98 0
19 1 98 0 22 64 0 0
1 0 0 0 21 64 0 0
73 38 0 0 20 64 0 0
99 0 0 0 24 1 33 0
20 1 1 1 37 1 0 0
38 1 128 255 39 1 127 0
22 1 0 0 21 1 63 0
23 1 103 0 13 1 16 0
45 1 16 0 36 1 0 0
00000000: 434f 5031 0100 1000 0610 0000 0000 0610
00000010: 0500 0000 0500 0000 0500 0000 0200 7d02
00000020: 2440 2600 8040 4040 0f01 0100 0040 0000
00000030: c0de 0000 0140 0000 0000 0000 0240 0000
00000040: 0000 0000 0340 0000 0000 0000 0b01 0000
00000050: 0c01 0000 0a01 6200 0401 6200 0640 0000
00000060: 0100 0000 0540 0000 4926 0000 0440 0000
00000070: 6300 0000 0901 2100 0501 0100 0701 0000
00000080: 1f01 0100 1040 0000 c0de 0000 1140 0000
00000090: 0000 0000 1240 0000 0000 0000 1340 0000
000000a0: 0000 0000 1b01 0000 1c01 0000 1a01 6200
000000b0: 1201 0000 1101 6200 1301 6200 1640 0000
000000c0: 0100 0000 1540 0000 4926 0000 1440 0000
000000d0: 6300 0000 1801 2100 1401 0101 2501 0000
000000e0: 2601 80ff 2701 7f00 1601 0000 1501 3f00
000000f0: 1701 6700 0d01 1000 2d01 1000 2401 0000

main_split_19_command_stream u1 [2476]
67 79 80 49 1 0 16 0
6 16 0 0 0 0 6 16
5 0 0 0 5 0 0 0
5 0 0 0 2 0 99 2
48 1 0 0 48 64 0 0
224 24 4 0 49 1 1 0
49 64 0 0 48 37 0 0
50 64 0 0 32 4 0 0
16 0 0 0 15 1 1 0
0 64 0 0 208 87 0 0
1 64 0 0 0 0 0 0
2 64 0 0 0 0 0 0
3 64 0 0 0 0 0 0
11 1 0 0 12 1 0 0
10 1 98 0 4 1 63 0
6 64 0 0 1 0 0 0
5 64 0 0 192 24 0 0
4 64 0 0 64 0 0 0
9 1 2 0 5 1 1 0
7 1 0 0 0 1 0 0
1 1 0 0 3 1 0 0
2 1 0 0 31 1 1 0
16 64 0 0 128 49 0 0
17 64 0 0 0 0 0 0
18 64 0 0 0 0 0 0
19 64 0 0 0 0 0 0
27 1 0 0 28 1 0 0
26 1 98 0 18 1 0 0
17 1 98 0 19 1 15 0
22 64 0 0 48 6 0 0
21 64 0 0 192 24 0 0
20 64 0 0 16 0 0 0
00000000: 434f 5031 0100 1000 0610 0000 0000 0610
00000010: 0500 0000 0500 0000 0500 0000 0200 6302
00000020: 3001 0000 3040 0000 e018 0400 3101 0100
00000030: 3140 0000 3025 0000 3240 0000 2004 0000
00000040: 1000 0000 0f01 0100 0040 0000 d057 0000
00000050: 0140 0000 0000 0000 0240 0000 0000 0000
00000060: 0340 0000 0000 0000 0b01 0000 0c01 0000
00000070: 0a01 6200 0401 3f00 0640 0000 0100 0000
00000080: 0540 0000 c018 0000 0440 0000 4000 0000
00000090: 0901 0200 0501 0100 0701 0000 0001 0000
000000a0: 0101 0000 0301 0000 0201 0000 1f01 0100
000000b0: 1040 0000 8031 0000 1140 0000 0000 0000
000000c0: 1240 0000 0000 0000 1340 0000 0000 0000
000000d0: 1b01 0000 1c01 0000 1a01 6200 1201 0000
000000e0: 1101 6200 1301 0f00 1640 0000 3006 0000
000000f0: 1540 0000 c018 0000 1440 0000 1000 0000

main_split_1_command_stream u1 [1704]
67 79 80 49 1 0 16 0
6 16 0 0 0 0 6 16
5 0 0 0 5 0 0 0
5 0 0 0 2 0 162 1
15 1 0 0 0 64 0 0
0 0 0 0 1 64 0 0
0 0 0 0 2 64 0 0
0 0 0 0 3 64 0 0
0 0 0 0 11 1 0 0
12 1 0 0 10 1 0 0
4 1 63 0 6 64 0 0
1 0 0 0 5 64 0 0
64 0 0 0 4 64 0 0
64 0 0 0 9 1 242 255
5 1 1 0 7 1 0 0
0 1 0 0 1 1 0 0
3 1 0 0 2 1 0 0
31 1 1 0 16 64 0 0
192 24 0 0 17 64 0 0
0 0 0 0 18 64 0 0
0 0 0 0 19 64 0 0
0 0 0 0 27 1 0 0
28 1 0 0 26 1 0 0
18 1 0 0 17 1 0 0
19 1 63 0 22 64 0 0
48 6 0 0 21 64 0 0
192 24 0 0 20 64 0 0
16 0 0 0 24 1 242 255
20 1 65 129 33 1 0 0
32 1 0 0 34 1 0 0
37 1 0 0 38 1 128 255
39 1 127 0 22 1 0 0
00000000: 434f 5031 0100 1000 0610 0000 0000 0610
00000010: 0500 0000 0500 0000 0500 0000 0200 a201
00000020: 0f01 0000 0040 0000 0000 0000 0140 0000
00000030: 0000 0000 0240 0000 0000 0000 0340 0000
00000040: 0000 0000 0b01 0000 0c01 0000 0a01 0000
00000050: 0401 3f00 0640 0000 0100 0000 0540 0000
00000060: 4000 0000 0440 0000 4000 0000 0901 f2ff
00000070: 0501 0100 0701 0000 0001 0000 0101 0000
00000080: 0301 0000 0201 0000 1f01 0100 1040 0000
00000090: c018 0000 1140 0000 0000 0000 1240 0000
000000a0: 0000 0000 1340 0000 0000 0000 1b01 0000
000000b0: 1c01 0000 1a01 0000 1201 0000 1101 0000
000000c0: 1301 3f00 1640 0000 3006 0000 1540 0000
000000d0: c018 0000 1440 0000 1000 0000 1801 f2ff
000000e0: 1401 4181 2101 0000 2001 0000 2201 0000
000000f0: 2501 0000 2601 80ff 2701 7f00 1601 0000

main_split_1_flash u1 [732944]
239 238 242 242 236 237 241 236
232 240 242 243 236 243 239 242
241 246 246 235 239 248 247 241
249 241 242 236 246 246 249 246
248 241 247 244 238 248 245 241
254 243 234 251 247 242 246 237
244 248 244 251 236 244 239 242
240 237 243 238 240 238 234 237
0 0 0 0 0 0 0 0
0 0 0 0 0 0 0 0
0 0 0 0 0 0 0 0
0 0 0 0 0 0 0 0
0 0 0 0 0 0 0 0
0 0 0 0 0 0 0 0
0 0 0 0 0 0 0 0
0 0 0 0 0 0 0 0
0 0 0 0 0 0 0 0
0 0 0 0 0 0 0 0
0 0 0 0 0 0 0 0
0 0 0 0 0 0 0 0
0 0 0 0 0 0 0 0
0 0 0 0 0 0 0 0
0 0 0 0 0 0 0 0
0 0 0 0 0 0 0 0
0 0 0 0 0 0 0 0
0 0 0 0 0 0 0 0
0 0 0 0 0 0 0 0
0 0 0 0 0 0 0 0
0 0 0 0 0 0 0 0
0 0 0 0 0 0 0 0
0 0 0 0 0 0 0 0
0 0 0 0 0 0 0 0
00000000: efee f2f2 eced f1ec e8f0 f2f3 ecf3 eff2
00000010: f1f6 f6eb eff8 f7f1 f9f1 f2ec f6f6 f9f6
00000020: f8f1 f7f4 eef8 f5f1 fef3 eafb f7f2 f6ed
00000030: f4f8 f4fb ecf4 eff2 f0ed f3ee f0ee eaed
00000040: 0000 0000 0000 0000 0000 0000 0000 0000
00000050: 0000 0000 0000 0000 0000 0000 0000 0000
00000060: 0000 0000 0000 0000 0000 0000 0000 0000
00000070: 0000 0000 0000 0000 0000 0000 0000 0000
00000080: 0000 0000 0000 0000 0000 0000 0000 0000
00000090: 0000 0000 0000 0000 0000 0000 0000 0000
000000a0: 0000 0000 0000 0000 0000 0000 0000 0000
000000b0: 0000 0000 0000 0000 0000 0000 0000 0000
000000c0: 0000 0000 0000 0000 0000 0000 0000 0000
000000d0: 0000 0000 0000 0000 0000 0000 0000 0000
000000e0: 0000 0000 0000 0000 0000 0000 0000 0000
000000f0: 0000 0000 0000 0000 0000 0000 0000 0000

main_split_20_command_stream u1 [3380]
67 79 80 49 1 0 16 0
6 16 0 0 0 0 6 16
5 0 0 0 5 0 0 0
5 0 0 0 2 0 69 3
36 64 38 0 128 155 164 68
15 1 1 0 0 64 0 0
64 74 0 0 1 64 0 0
0 0 0 0 2 64 0 0
0 0 0 0 3 64 0 0
0 0 0 0 11 1 0 0
12 1 0 0 10 1 98 0
4 1 63 0 6 64 0 0
1 0 0 0 5 64 0 0
192 24 0 0 4 64 0 0
64 0 0 0 9 1 128 255
5 1 1 0 7 1 0 0
31 1 1 0 16 64 0 0
0 99 0 0 17 64 0 0
0 0 0 0 18 64 0 0
0 0 0 0 19 64 0 0
0 0 0 0 27 1 0 0
28 1 0 0 26 1 98 0
18 1 0 0 17 1 98 0
19 1 63 0 22 64 0 0
48 6 0 0 21 64 0 0
192 24 0 0 20 64 0 0
16 0 0 0 24 1 56 0
20 1 65 1 37 1 0 0
38 1 128 255 39 1 127 0
22 1 0 0 21 1 63 0
23 1 47 0 13 1 16 0
45 1 16 0 141 1 8 0
00000000: 434f 5031 0100 1000 0610 0000 0000 0610
00000010: 0500 0000 0500 0000 0500 0000 0200 4503
00000020: 2440 2600 809b a444 0f01 0100 0040 0000
00000030: 404a 0000 0140 0000 0000 0000 0240 0000
00000040: 0000 0000 0340 0000 0000 0000 0b01 0000
00000050: 0c01 0000 0a01 6200 0401 3f00 0640 0000
00000060: 0100 0000 0540 0000 c018 0000 0440 0000
00000070: 4000 0000 0901 80ff 0501 0100 0701 0000
00000080: 1f01 0100 1040 0000 0063 0000 1140 0000
00000090: 0000 0000 1240 0000 0000 0000 1340 0000
000000a0: 0000 0000 1b01 0000 1c01 0000 1a01 6200
000000b0: 1201 0000 1101 6200 1301 3f00 1640 0000
000000c0: 3006 0000 1540 0000 c018 0000 1440 0000
000000d0: 1000 0000 1801 3800 1401 4101 2501 0000
000000e0: 2601 80ff 2701 7f00 1601 0000 1501 3f00
000000f0: 1701 2f00 0d01 1000 2d01 1000 8d01 0800

main_split_21_command_stream u1 [1444]
67 79 80 49 1 0 16 0
6 16 0 0 0 0 6 16
5 0 0 0 5 0 0 0
5 0 0 0 2 0 97 1
36 64 38 0 0 14 46 71
15 1 1 0 0 64 0 0
48 25 0 0 1 64 0 0
0 0 0 0 2 64 0 0
0 0 0 0 3 64 0 0
0 0 0 0 11 1 0 0
12 1 0 0 10 1 98 0
4 1 63 0 6 64 0 0
1 0 0 0 5 64 0 0
192 24 0 0 4 64 0 0
64 0 0 0 9 1 128 255
5 1 1 0 7 1 0 0
31 1 1 0 16 64 0 0
240 49 0 0 17 64 0 0
0 0 0 0 18 64 0 0
0 0 0 0 19 64 0 0
0 0 0 0 27 1 0 0
28 1 0 0 26 1 98 0
18 1 0 0 17 1 98 0
19 1 63 0 22 64 0 0
48 6 0 0 21 64 0 0
192 24 0 0 20 64 0 0
16 0 0 0 24 1 181 255
20 1 65 1 37 1 0 0
38 1 128 255 39 1 127 0
22 1 0 0 21 1 63 0
23 1 47 0 13 1 16 0
45 1 16 0 141 1 8 0
00000000: 434f 5031 0100 1000 0610 0000 0000 0610
00000010: 0500 0000 0500 0000 0500 0000 0200 6101
00000020: 2440 2600 000e 2e47 0f01 0100 0040 0000
00000030: 3019 0000 0140 0000 0000 0000 0240 0000
00000040: 0000 0000 0340 0000 0000 0000 0b01 0000
00000050: 0c01 0000 0a01 6200 0401 3f00 0640 0000
00000060: 0100 0000 0540 0000 c018 0000 0440 0000
00000070: 4000 0000 0901 80ff 0501 0100 0701 0000
00000080: 1f01 0100 1040 0000 f031 0000 1140 0000
00000090: 0000 0000 1240 0000 0000 0000 1340 0000
000000a0: 0000 0000 1b01 0000 1c01 0000 1a01 6200
000000b0: 1201 0000 1101 6200 1301 3f00 1640 0000
000000c0: 3006 0000 1540 0000 c018 0000 1440 0000
000000d0: 1000 0000 1801 b5ff 1401 4101 2501 0000
000000e0: 2601 80ff 2701 7f00 1601 0000 1501 3f00
000000f0: 1701 2f00 0d01 1000 2d01 1000 8d01 0800

main_split_22_command_stream u1 [2580]
67 79 80 49 1 0 16 0
6 16 0 0 0 0 6 16
5 0 0 0 5 0 0 0
5 0 0 0 2 0 125 2
36 64 38 0 128 64 64 64
15 1 1 0 0 64 0 0
192 222 0 0 1 64 0 0
0 0 0 0 2 64 0 0
0 0 0 0 3 64 0 0
0 0 0 0 11 1 0 0
12 1 0 0 10 1 98 0
4 1 98 0 6 64 0 0
1 0 0 0 5 64 0 0
73 38 0 0 4 64 0 0
99 0 0 0 9 1 19 0
5 1 1 0 7 1 0 0
31 1 1 0 16 64 0 0
192 222 0 0 17 64 0 0
0 0 0 0 18 64 0 0
0 0 0 0 19 64 0 0
0 0 0 0 27 1 0 0
28 1 0 0 26 1 98 0
18 1 0 0 17 1 98 0
19 1 98 0 22 64 0 0
1 0 0 0 21 64 0 0
73 38 0 0 20 64 0 0
99 0 0 0 24 1 19 0
20 1 1 1 37 1 0 0
38 1 128 255 39 1 127 0
22 1 0 0 21 1 63 0
23 1 103 0 13 1 16 0
45 1 16 0 36 1 0 0
00000000: 434f 5031 0100 1000 0610 0000 0000 0610
00000010: 0500 0000 0500 0000 0500 0000 0200 7d02
00000020: 2440 2600 8040 4040 0f01 0100 0040 0000
00000030: c0de 0000 0140 0000 0000 0000 0240 0000
00000040: 0000 0000 0340 0000 0000 0000 0b01 0000
00000050: 0c01 0000 0a01 6200 0401 6200 0640 0000
00000060: 0100 0000 0540 0000 4926 0000 0440 0000
00000070: 6300 0000 0901 1300 0501 0100 0701 0000
00000080: 1f01 0100 1040 0000 c0de 0000 1140 0000
00000090: 0000 0000 1240 0000 0000 0000 1340 0000
000000a0: 0000 0000 1b01 0000 1c01 0000 1a01 6200
000000b0: 1201 0000 1101 6200 1301 6200 1640 0000
000000c0: 0100 0000 1540 0000 4926 0000 1440 0000
000000d0: 6300 0000 1801 1300 1401 0101 2501 0000
000000e0: 2601 80ff 2701 7f00 1601 0000 1501 3f00
000000f0: 1701 6700 0d01 1000 2d01 1000 2401 0000

main_split_23_command_stream u1 [2476]
67 79 80 49 1 0 16 0
6 16 0 0 0 0 6 16
5 0 0 0 5 0 0 0
5 0 0 0 2 0 99 2
48 1 0 0 48 64 0 0
192 3 5 0 49 1 1 0
49 64 0 0 208 37 0 0
50 64 0 0 96 4 0 0
16 0 0 0 15 1 1 0
0 64 0 0 208 87 0 0
1 64 0 0 0 0 0 0
2 64 0 0 0 0 0 0
3 64 0 0 0 0 0 0
11 1 0 0 12 1 0 0
10 1 98 0 4 1 63 0
6 64 0 0 1 0 0 0
5 64 0 0 192 24 0 0
4 64 0 0 64 0 0 0
9 1 27 0 5 1 1 0
7 1 0 0 0 1 0 0
1 1 0 0 3 1 0 0
2 1 0 0 31 1 1 0
16 64 0 0 128 49 0 0
17 64 0 0 0 0 0 0
18 64 0 0 0 0 0 0
19 64 0 0 0 0 0 0
27 1 0 0 28 1 0 0
26 1 98 0 18 1 0 0
17 1 98 0 19 1 15 0
22 64 0 0 48 6 0 0
21 64 0 0 192 24 0 0
20 64 0 0 16 0 0 0
00000000: 434f 5031 0100 1000 0610 0000 0000 0610
00000010: 0500 0000 0500 0000 0500 0000 0200 6302
00000020: 3001 0000 3040 0000 c003 0500 3101 0100
00000030: 3140 0000 d025 0000 3240 0000 6004 0000
00000040: 1000 0000 0f01 0100 0040 0000 d057 0000
00000050: 0140 0000 0000 0000 0240 0000 0000 0000
00000060: 0340 0000 0000 0000 0b01 0000 0c01 0000
00000070: 0a01 6200 0401 3f00 0640 0000 0100 0000
00000080: 0540 0000 c018 0000 0440 0000 4000 0000
00000090: 0901 1b00 0501 0100 0701 0000 0001 0000
000000a0: 0101 0000 0301 0000 0201 0000 1f01 0100
000000b0: 1040 0000 8031 0000 1140 0000 0000 0000
000000c0: 1240 0000 0000 0000 1340 0000 0000 0000
000000d0: 1b01 0000 1c01 0000 1a01 6200 1201 0000
000000e0: 1101 6200 1301 0f00 1640 0000 3006 0000
000000f0: 1540 0000 c018 0000 1440 0000 1000 0000

main_split_24_command_stream u1 [3332]
67 79 80 49 1 0 16 0
6 16 0 0 0 0 6 16
5 0 0 0 5 0 0 0
5 0 0 0 2 0 57 3
36 64 38 0 0 32 210 67
15 1 1 0 0 64 0 0
64 74 0 0 1 64 0 0
0 0 0 0 2 64 0 0
0 0 0 0 3 64 0 0
0 0 0 0 11 1 0 0
12 1 0 0 10 1 98 0
4 1 63 0 6 64 0 0
1 0 0 0 5 64 0 0
192 24 0 0 4 64 0 0
64 0 0 0 9 1 128 255
5 1 1 0 7 1 0 0
31 1 1 0 16 64 0 0
0 99 0 0 17 64 0 0
0 0 0 0 18 64 0 0
0 0 0 0 19 64 0 0
0 0 0 0 27 1 0 0
28 1 0 0 26 1 98 0
18 1 0 0 17 1 98 0
19 1 63 0 22 64 0 0
48 6 0 0 21 64 0 0
192 24 0 0 20 64 0 0
16 0 0 0 24 1 80 0
20 1 65 1 37 1 0 0
38 1 128 255 39 1 127 0
22 1 0 0 21 1 63 0
23 1 47 0 13 1 16 0
45 1 16 0 141 1 8 0
00000000: 434f 5031 0100 1000 0610 0000 0000 0610
00000010: 0500 0000 0500 0000 0500 0000 0200 3903
00000020: 2440 2600 0020 d243 0f01 0100 0040 0000
00000030: 404a 0000 0140 0000 0000 0000 0240 0000
00000040: 0000 0000 0340 0000 0000 0000 0b01 0000
00000050: 0c01 0000 0a01 6200 0401 3f00 0640 0000
00000060: 0100 0000 0540 0000 c018 0000 0440 0000
00000070: 4000 0000 0901 80ff 0501 0100 0701 0000
00000080: 1f01 0100 1040 0000 0063 0000 1140 0000
00000090: 0000 0000 1240 0000 0000 0000 1340 0000
000000a0: 0000 0000 1b01 0000 1c01 0000 1a01 6200
000000b0: 1201 0000 1101 6200 1301 3f00 1640 0000
000000c0: 3006 0000 1540 0000 c018 0000 1440 0000
000000d0: 1000 0000 1801 5000 1401 4101 2501 0000
000000e0: 2601 80ff 2701 7f00 1601 0000 1501 3f00
000000f0: 1701 2f00 0d01 1000 2d01 1000 8d01 0800

main_split_25_command_stream u1 [1452]
67 79 80 49 1 0 16 0
6 16 0 0 0 0 6 16
5 0 0 0 5 0 0 0
5 0 0 0 2 0 99 1
36 64 38 0 128 134 59 71
15 1 1 0 0 64 0 0
48 25 0 0 1 64 0 0
0 0 0 0 2 64 0 0
0 0 0 0 3 64 0 0
0 0 0 0 11 1 0 0
12 1 0 0 10 1 98 0
4 1 63 0 6 64 0 0
1 0 0 0 5 64 0 0
192 24 0 0 4 64 0 0
64 0 0 0 9 1 128 255
5 1 1 0 7 1 0 0
31 1 1 0 16 64 0 0
240 49 0 0 17 64 0 0
0 0 0 0 18 64 0 0
0 0 0 0 19 64 0 0
0 0 0 0 27 1 0 0
28 1 0 0 26 1 98 0
18 1 0 0 17 1 98 0
19 1 63 0 22 64 0 0
48 6 0 0 21 64 0 0
192 24 0 0 20 64 0 0
16 0 0 0 24 1 206 255
20 1 65 1 37 1 0 0
38 1 128 255 39 1 127 0
22 1 0 0 21 1 63 0
23 1 47 0 13 1 16 0
45 1 16 0 141 1 8 0
00000000: 434f 5031 0100 1000 0610 0000 0000 0610
00000010: 0500 0000 0500 0000 0500 0000 0200 6301
00000020: 2440 2600 8086 3b47 0f01 0100 0040 0000
00000030: 3019 0000 0140 0000 0000 0000 0240 0000
00000040: 0000 0000 0340 0000 0000 0000 0b01 0000
00000050: 0c01 0000 0a01 6200 0401 3f00 0640 0000
00000060: 0100 0000 0540 0000 c018 0000 0440 0000
00000070: 4000 0000 0901 80ff 0501 0100 0701 0000
00000080: 1f01 0100 1040 0000 f031 0000 1140 0000
00000090: 0000 0000 1240 0000 0000 0000 1340 0000
000000a0: 0000 0000 1b01 0000 1c01 0000 1a01 6200
000000b0: 1201 0000 1101 6200 1301 3f00 1640 0000
000000c0: 3006 0000 1540 0000 c018 0000 1440 0000
000000d0: 1000 0000 1801 ceff 1401 4101 2501 0000
000000e0: 2601 80ff 2701 7f00 1601 0000 1501 3f00
000000f0: 1701 2f00 0d01 1000 2d01 1000 8d01 0800

main_split_26_command_stream u1 [2480]
67 79 80 49 1 0 16 0
6 16 0 0 0 0 6 16
5 0 0 0 5 0 0 0
5 0 0 0 2 0 100 2
36 64 38 0 128 64 64 64
15 1 1 0 0 64 0 0
192 222 0 0 1 64 0 0
0 0 0 0 2 64 0 0
0 0 0 0 3 64 0 0
0 0 0 0 11 1 0 0
12 1 0 0 10 1 98 0
4 1 98 0 6 64 0 0
1 0 0 0 5 64 0 0
73 38 0 0 4 64 0 0
99 0 0 0 9 1 0 0
5 1 1 0 7 1 0 0
31 1 1 0 16 64 0 0
192 222 0 0 17 64 0 0
0 0 0 0 18 64 0 0
0 0 0 0 19 64 0 0
0 0 0 0 27 1 0 0
28 1 0 0 26 1 98 0
18 1 0 0 17 1 98 0
19 1 98 0 22 64 0 0
1 0 0 0 21 64 0 0
73 38 0 0 20 64 0 0
99 0 0 0 24 1 0 0
20 1 1 1 37 1 0 0
38 1 128 255 39 1 127 0
22 1 0 0 21 1 63 0
23 1 103 0 13 1 16 0
45 1 16 0 36 1 0 0
00000000: 434f 5031 0100 1000 0610 0000 0000 0610
00000010: 0500 0000 0500 0000 0500 0000 0200 6402
00000020: 2440 2600 8040 4040 0f01 0100 0040 0000
00000030: c0de 0000 0140 0000 0000 0000 0240 0000
00000040: 0000 0000 0340 0000 0000 0000 0b01 0000
00000050: 0c01 0000 0a01 6200 0401 6200 0640 0000
00000060: 0100 0000 0540 0000 4926 0000 0440 0000
00000070: 6300 0000 0901 0000 0501 0100 0701 0000
00000080: 1f01 0100 1040 0000 c0de 0000 1140 0000
00000090: 0000 0000 1240 0000 0000 0000 1340 0000
000000a0: 0000 0000 1b01 0000 1c01 0000 1a01 6200
000000b0: 1201 0000 1101 6200 1301 6200 1640 0000
000000c0: 0100 0000 1540 0000 4926 0000 1440 0000
000000d0: 6300 0000 1801 0000 1401 0101 2501 0000
000000e0: 2601 80ff 2701 7f00 1601 0000 1501 3f00
000000f0: 1701 6700 0d01 1000 2d01 1000 2401 0000

main_split_27_command_stream u1 [2476]
67 79 80 49 1 0 16 0
6 16 0 0 0 0 6 16
5 0 0 0 5 0 0 0
5 0 0 0 2 0 99 2
48 1 0 0 48 64 0 0
16 238 5 0 49 1 1 0
49 64 0 0 144 37 0 0
50 64 0 0 80 4 0 0
16 0 0 0 15 1 1 0
0 64 0 0 208 87 0 0
1 64 0 0 0 0 0 0
2 64 0 0 0 0 0 0
3 64 0 0 0 0 0 0
11 1 0 0 12 1 0 0
10 1 98 0 4 1 63 0
6 64 0 0 1 0 0 0
5 64 0 0 192 24 0 0
4 64 0 0 64 0 0 0
9 1 2 0 5 1 1 0
7 1 0 0 0 1 0 0
1 1 0 0 3 1 0 0
2 1 0 0 31 1 1 0
16 64 0 0 128 49 0 0
17 64 0 0 0 0 0 0
18 64 0 0 0 0 0 0
19 64 0 0 0 0 0 0
27 1 0 0 28 1 0 0
26 1 98 0 18 1 0 0
17 1 98 0 19 1 15 0
22 64 0 0 48 6 0 0
21 64 0 0 192 24 0 0
20 64 0 0 16 0 0 0
00000000: 434f 5031 0100 1000 0610 0000 0000 0610
00000010: 0500 0000 0500 0000 0500 0000 0200 6302
00000020: 3001 0000 3040 0000 10ee 0500 3101 0100
00000030: 3140 0000 9025 0000 3240 0000 5004 0000
00000040: 1000 0000 0f01 0100 0040 0000 d057 0000
00000050: 0140 0000 0000 0000 0240 0000 0000 0000
00000060: 0340 0000 0000 0000 0b01 0000 0c01 0000
00000070: 0a01 6200 0401 3f00 0640 0000 0100 0000
00000080: 0540 0000 c018 0000 0440 0000 4000 0000
00000090: 0901 0200 0501 0100 0701 0000 0001 0000
000000a0: 0101 0000 0301 0000 0201 0000 1f01 0100
000000b0: 1040 0000 8031 0000 1140 0000 0000 0000
000000c0: 1240 0000 0000 0000 1340 0000 0000 0000
000000d0: 1b01 0000 1c01 0000 1a01 6200 1201 0000
000000e0: 1101 6200 1301 0f00 1640 0000 3006 0000
000000f0: 1540 0000 c018 0000 1440 0000 1000 0000

main_split_28_command_stream u1 [3372]
67 79 80 49 1 0 16 0
6 16 0 0 0 0 6 16
5 0 0 0 5 0 0 0
5 0 0 0 2 0 67 3
36 64 38 0 0 176 159 66
15 1 1 0 0 64 0 0
64 74 0 0 1 64 0 0
0 0 0 0 2 64 0 0
0 0 0 0 3 64 0 0
0 0 0 0 11 1 0 0
12 1 0 0 10 1 98 0
4 1 63 0 6 64 0 0
1 0 0 0 5 64 0 0
192 24 0 0 4 64 0 0
64 0 0 0 9 1 128 255
5 1 1 0 7 1 0 0
31 1 1 0 16 64 0 0
0 99 0 0 17 64 0 0
0 0 0 0 18 64 0 0
0 0 0 0 19 64 0 0
0 0 0 0 27 1 0 0
28 1 0 0 26 1 98 0
18 1 0 0 17 1 98 0
19 1 63 0 22 64 0 0
48 6 0 0 21 64 0 0
192 24 0 0 20 64 0 0
16 0 0 0 24 1 28 0
20 1 65 1 37 1 0 0
38 1 128 255 39 1 127 0
22 1 0 0 21 1 63 0
23 1 47 0 13 1 16 0
45 1 16 0 141 1 8 0
00000000: 434f 5031 0100 1000 0610 0000 0000 0610
00000010: 0500 0000 0500 0000 0500 0000 0200 4303
00000020: 2440 2600 00b0 9f42 0f01 0100 0040 0000
00000030: 404a 0000 0140 0000 0000 0000 0240 0000
00000040: 0000 0000 0340 0000 0000 0000 0b01 0000
00000050: 0c01 0000 0a01 6200 0401 3f00 0640 0000
00000060: 0100 0000 0540 0000 c018 0000 0440 0000
00000070: 4000 0000 0901 80ff 0501 0100 0701 0000
00000080: 1f01 0100 1040 0000 0063 0000 1140 0000
00000090: 0000 0000 1240 0000 0000 0000 1340 0000
000000a0: 0000 0000 1b01 0000 1c01 0000 1a01 6200
000000b0: 1201 0000 1101 6200 1301 3f00 1640 0000
000000c0: 3006 0000 1540 0000 c018 0000 1440 0000
000000d0: 1000 0000 1801 1c00 1401 4101 2501 0000
000000e0: 2601 80ff 2701 7f00 1601 0000 1501 3f00
000000f0: 1701 2f00 0d01 1000 2d01 1000 8d01 0800
