model_zoo/tflm_fd_fm/1_fm_0x280000.tflite (tflite, 688176 bytes, 5 tensors)

main_split_1_command_stream u1 [2216]
000000 43 4f 50 31 01 00 10 00 06 10 00 00 00 00 06 10
       67 79 80 49 1 0 16 0 6 16 0 0 0 0 6 16
000010 05 00 00 00 05 00 00 00 05 00 00 00 02 00 22 02
       5 0 0 0 5 0 0 0 5 0 0 0 2 0 34 2
000020 30 01 00 00 30 40 00 00 60 05 00 00 31 01 01 00
       48 1 0 0 48 64 0 0 96 5 0 0 49 1 1 0
000030 31 40 00 00 00 b0 01 00 32 40 00 00 e0 02 00 00
       49 64 0 0 0 176 1 0 50 64 0 0 224 2 0 0
000040 10 00 00 00 0f 01 01 00 00 40 00 00 00 00 00 00
       16 0 0 0 15 1 1 0 0 64 0 0 0 0 0 0
000050 01 40 00 00 00 00 00 00 02 40 00 00 00 00 00 00
       1 64 0 0 0 0 0 0 2 64 0 0 0 0 0 0
000060 03 40 00 00 00 00 00 00 0b 01 bf 00 0c 01 bf 00
       3 64 0 0 0 0 0 0 11 1 191 0 12 1 191 0
000070 0a 01 5f 00 04 01 05 00 06 40 00 00 01 00 00 00
       10 1 95 0 4 1 5 0 6 64 0 0 1 0 0 0
000080 05 40 00 00 40 02 00 00 04 40 00 00 06 00 00 00
       5 64 0 0 64 2 0 0 4 64 0 0 6 0 0 0
000090 09 01 80 ff 05 01 01 00 07 01 00 00 00 01 00 00
       9 1 128 255 5 1 1 0 7 1 0 0 0 1 0 0
0000a0 01 01 00 00 03 01 01 00 02 01 01 00 1f 01 01 00
       1 1 0 0 3 1 1 0 2 1 1 0 31 1 1 0
0000b0 10 40 00 00 00 80 04 00 11 40 00 00 00 00 00 00
       16 64 0 0 0 128 4 0 17 64 0 0 0 0 0 0
0000c0 12 40 00 00 00 00 00 00 13 40 00 00 00 00 00 00
       18 64 0 0 0 0 0 0 19 64 0 0 0 0 0 0
0000d0 1b 01 5f 00 1c 01 5f 00 1a 01 5f 00 12 01 5f 00
       27 1 95 0 28 1 95 0 26 1 95 0 18 1 95 0
0000e0 11 01 5f 00 13 01 0f 00 16 40 00 00 00 06 00 00
       17 1 95 0 19 1 15 0 22 64 0 0 0 6 0 0
0000f0 15 40 00 00 00 06 00 00 14 40 00 00 10 00 00 00
       21 64 0 0 0 6 0 0 20 64 0 0 16 0 0 0

main_split_1_flash u1 [658560]
000000 00 00 00 00 00 00 00 00 00 00 00 00 00 00 00 00
       0 0 0 0 0 0 0 0 0 0 0 0 0 0 0 0
000010 00 00 00 00 00 00 00 00 00 00 00 00 00 00 00 00
       0 0 0 0 0 0 0 0 0 0 0 0 0 0 0 0
000020 00 00 00 00 00 00 00 00 00 00 00 00 00 00 00 00
       0 0 0 0 0 0 0 0 0 0 0 0 0 0 0 0
000030 00 00 00 00 00 00 00 00 00 00 00 00 00 00 00 00
       0 0 0 0 0 0 0 0 0 0 0 0 0 0 0 0
000040 00 00 00 00 00 00 00 00 00 00 00 00 00 00 00 00
       0 0 0 0 0 0 0 0 0 0 0 0 0 0 0 0
000050 00 00 00 00 00 00 00 00 00 00 00 00 00 00 00 00
       0 0 0 0 0 0 0 0 0 0 0 0 0 0 0 0
000060 00 00 00 00 00 00 00 00 00 00 00 00 00 00 00 00
       0 0 0 0 0 0 0 0 0 0 0 0 0 0 0 0
000070 00 00 00 00 00 00 00 00 00 00 00 00 00 00 00 00
       0 0 0 0 0 0 0 0 0 0 0 0 0 0 0 0
000080 00 00 00 00 00 00 00 00 00 00 00 00 00 00 00 00
       0 0 0 0 0 0 0 0 0 0 0 0 0 0 0 0
000090 00 00 00 00 00 00 00 00 00 00 00 00 00 00 00 00
       0 0 0 0 0 0 0 0 0 0 0 0 0 0 0 0
0000a0 00 00 00 00 00 00 00 00 00 00 00 00 00 00 00 00
       0 0 0 0 0 0 0 0 0 0 0 0 0 0 0 0
0000b0 4f 40 2d fd 46 41 67 e7 7c 7f 44 2c f6 20 4d f2
       79 64 45 253 70 65 103 231 124 127 68 44 246 32 77 242
0000c0 00 00 00 00 00 00 00 00 00 00 00 00 00 00 00 00
       0 0 0 0 0 0 0 0 0 0 0 0 0 0 0 0
0000d0 00 00 00 00 00 00 00 00 00 00 00 00 00 00 00 00
       0 0 0 0 0 0 0 0 0 0 0 0 0 0 0 0
0000e0 00 00 00 00 00 00 00 00 00 00 00 00 00 00 00 00
       0 0 0 0 0 0 0 0 0 0 0 0 0 0 0 0
0000f0 00 00 00 00 00 00 00 00 00 00 00 00 00 00 00 00
       0 0 0 0 0 0 0 0 0 0 0 0 0 0 0 0

main_split_2_command_stream u1 [2276]
000000 43 4f 50 31 01 00 10 00 06 10 00 00 00 00 06 10
       67 79 80 49 1 0 16 0 6 16 0 0 0 0 6 16
000010 05 00 00 00 05 00 00 00 05 00 00 00 02 00 31 02
       5 0 0 0 5 0 0 0 5 0 0 0 2 0 49 2
000020 25 40 0c 00 5d d1 d3 7b 26 40 00 00 00 00 00 00
       37 64 12 0 93 209 211 123 38 64 0 0 0 0 0 0
000030 24 40 32 00 ca 02 e9 61 0f 01 01 00 00 40 00 00
       36 64 50 0 202 2 233 97 15 1 1 0 0 64 0 0
000040 00 00 00 00 01 40 00 00 00 00 00 00 02 40 00 00
       0 0 0 0 1 64 0 0 0 0 0 0 2 64 0 0
000050 00 00 00 00 03 40 00 00 00 00 00 00 0b 01 2f 00
       0 0 0 0 3 64 0 0 0 0 0 0 11 1 47 0
000060 0c 01 2f 00 0a 01 2f 00 04 01 1f 00 06 40 00 00
       12 1 47 0 10 1 47 0 4 1 31 0 6 64 0 0
000070 01 00 00 00 05 40 00 00 00 06 00 00 04 40 00 00
       1 0 0 0 5 64 0 0 0 6 0 0 4 64 0 0
000080 20 00 00 00 09 01 bc ff 05 01 01 01 07 01 00 00
       32 0 0 0 9 1 188 255 5 1 1 1 7 1 0 0
000090 1f 01 01 00 10 40 00 00 00 60 03 00 11 40 00 00
       31 1 1 0 16 64 0 0 0 96 3 0 17 64 0 0
0000a0 00 00 00 00 12 40 00 00 00 00 00 00 13 40 00 00
       0 0 0 0 18 64 0 0 0 0 0 0 19 64 0 0
0000b0 00 00 00 00 1b 01 2f 00 1c 01 2f 00 1a 01 2f 00
       0 0 0 0 27 1 47 0 28 1 47 0 26 1 47 0
0000c0 12 01 2f 00 11 01 2f 00 13 01 1f 00 16 40 00 00
       18 1 47 0 17 1 47 0 19 1 31 0 22 64 0 0
0000d0 00 03 00 00 15 40 00 00 00 06 00 00 14 40 00 00
       0 3 0 0 21 64 0 0 0 6 0 0 20 64 0 0
0000e0 10 00 00 00 18 01 f0 ff 14 01 41 01 25 01 00 00
       16 0 0 0 24 1 240 255 20 1 65 1 37 1 0 0
0000f0 26 01 80 ff 27 01 7f 00 16 01 03 00 15 01 2f 00
       38 1 128 255 39 1 127 0 22 1 3 0 21 1 47 0

main_split_3_command_stream u1 [2352]
000000 43 4f 50 31 01 00 10 00 06 10 00 00 00 00 06 10
       67 79 80 49 1 0 16 0 6 16 0 0 0 0 6 16
000010 05 00 00 00 05 00 00 00 05 00 00 00 02 00 44 02
       5 0 0 0 5 0 0 0 5 0 0 0 2 0 68 2
000020 25 40 0c 00 6d 9b 1c 7c 26 40 00 00 00 00 00 00
       37 64 12 0 109 155 28 124 38 64 0 0 0 0 0 0
000030 24 40 32 00 9b 38 0e 63 0f 01 01 00 00 40 00 00
       36 64 50 0 155 56 14 99 15 1 1 0 0 64 0 0
000040 00 00 00 00 01 40 00 00 00 00 00 00 02 40 00 00
       0 0 0 0 1 64 0 0 0 0 0 0 2 64 0 0
000050 00 00 00 00 03 40 00 00 00 00 00 00 0b 01 17 00
       0 0 0 0 3 64 0 0 0 0 0 0 11 1 23 0
000060 0c 01 17 00 0a 01 17 00 04 01 3f 00 06 40 00 00
       12 1 23 0 10 1 23 0 4 1 63 0 6 64 0 0
000070 01 00 00 00 05 40 00 00 00 06 00 00 04 40 00 00
       1 0 0 0 5 64 0 0 0 6 0 0 4 64 0 0
000080 40 00 00 00 09 01 ab ff 05 01 01 01 07 01 00 00
       64 0 0 0 9 1 171 255 5 1 1 1 7 1 0 0
000090 1f 01 01 00 10 40 00 00 00 90 00 00 11 40 00 00
       31 1 1 0 16 64 0 0 0 144 0 0 17 64 0 0
0000a0 00 00 00 00 12 40 00 00 00 00 00 00 13 40 00 00
       0 0 0 0 18 64 0 0 0 0 0 0 19 64 0 0
0000b0 00 00 00 00 1b 01 17 00 1c 01 17 00 1a 01 17 00
       0 0 0 0 27 1 23 0 28 1 23 0 26 1 23 0
0000c0 12 01 17 00 11 01 17 00 13 01 3f 00 16 40 00 00
       18 1 23 0 17 1 23 0 19 1 63 0 22 64 0 0
0000d0 80 01 00 00 15 40 00 00 00 06 00 00 14 40 00 00
       128 1 0 0 21 64 0 0 0 6 0 0 20 64 0 0
0000e0 10 00 00 00 18 01 d9 ff 14 01 41 01 25 01 00 00
       16 0 0 0 24 1 217 255 20 1 65 1 37 1 0 0
0000f0 26 01 80 ff 27 01 7f 00 16 01 07 00 15 01 17 00
       38 1 128 255 39 1 127 0 22 1 7 0 21 1 23 0

main_split_4_command_stream u1 [19268]
000000 43 4f 50 31 01 00 10 00 06 10 00 00 00 00 06 10
       67 79 80 49 1 0 16 0 6 16 0 0 0 0 6 16
000010 05 00 00 00 05 00 00 00 05 00 00 00 02 00 c9 12
       5 0 0 0 5 0 0 0 5 0 0 0 2 0 201 18
000020 25 40 0c 00 18 79 80 41 26 40 00 00 00 00 00 00
       37 64 12 0 24 121 128 65 38 64 0 0 0 0 0 0
000030 24 40 31 00 fc ab 40 43 0f 01 01 00 00 40 00 00
       36 64 49 0 252 171 64 67 15 1 1 0 0 64 0 0
000040 00 00 00 00 01 40 00 00 00 00 00 00 02 40 00 00
       0 0 0 0 1 64 0 0 0 0 0 0 2 64 0 0
000050 00 00 00 00 03 40 00 00 00 00 00 00 0b 01 0b 00
       0 0 0 0 3 64 0 0 0 0 0 0 11 1 11 0
000060 0c 01 0b 00 0a 01 0b 00 04 01 7f 00 06 40 00 00
       12 1 11 0 10 1 11 0 4 1 127 0 6 64 0 0
000070 01 00 00 00 05 40 00 00 00 06 00 00 04 40 00 00
       1 0 0 0 5 64 0 0 0 6 0 0 4 64 0 0
000080 80 00 00 00 09 01 bf ff 05 01 01 02 07 01 00 00
       128 0 0 0 9 1 191 255 5 1 1 2 7 1 0 0
000090 1f 01 01 00 10 40 00 00 00 48 00 00 11 40 00 00
       31 1 1 0 16 64 0 0 0 72 0 0 17 64 0 0
0000a0 00 00 00 00 12 40 00 00 00 00 00 00 13 40 00 00
       0 0 0 0 18 64 0 0 0 0 0 0 19 64 0 0
0000b0 00 00 00 00 1b 01 0b 00 1c 01 0b 00 1a 01 0b 00
       0 0 0 0 27 1 11 0 28 1 11 0 26 1 11 0
0000c0 12 01 0b 00 11 01 0b 00 13 01 7f 00 16 40 00 00
       18 1 11 0 17 1 11 0 19 1 127 0 22 64 0 0
0000d0 c0 00 00 00 15 40 00 00 00 06 00 00 14 40 00 00
       192 0 0 0 21 64 0 0 0 6 0 0 20 64 0 0
0000e0 10 00 00 00 18 01 c6 ff 14 01 41 01 25 01 00 00
       16 0 0 0 24 1 198 255 20 1 65 1 37 1 0 0
0000f0 26 01 80 ff 27 01 7f 00 16 01 07 00 15 01 0b 00
       38 1 128 255 39 1 127 0 22 1 7 0 21 1 11 0
