model_zoo/tflm_fd_fm/2_il_0x32A000.tflite (tflite, 788688 bytes, 3 tensors)

main_split_1_command_stream u1 [5740]
00000000: 434f 5031 0100 1000 0610 0000 0000 0610
00000010: 0500 0000 0500 0000 0500 0000 0200 9305
00000020: 3001 0000 3040 0000 2023 0000 3101 0100
00000030: 3140 0000 8038 0000 3240 0000 d002 0000
00000040: 1000 0000 0f01 0100 0040 0000 0000 0000
00000050: 0140 0000 0000 0000 0240 0000 0000 0000
00000060: 0340 0000 0000 0000 0b01 3f00 0c01 3f00
00000070: 0a01 1f00 0401 0500 0640 0000 0100 0000
00000080: 0540 0000 c000 0000 0440 0000 0600 0000
00000090: 0901 80ff 0501 0100 0701 0000 0001 0000
000000a0: 0101 0000 0301 0100 0201 0100 1f01 0100
000000b0: 1040 0000 0000 0100 1140 0000 0000 0000
000000c0: 1240 0000 0000 0000 1340 0000 0000 0000
000000d0: 1b01 1f00 1c01 1f00 1a01 1f00 1201 1f00
000000e0: 1101 1f00 1301 0f00 1640 0000 0002 0000
000000f0: 1540 0000 0008 0000 1440 0000 1000 0000
67 79 80 49 1 0 16 0
6 16 0 0 0 0 6 16
5 0 0 0 5 0 0 0
5 0 0 0 2 0 147 5
48 1 0 0 48 64 0 0
32 35 0 0 49 1 1 0
49 64 0 0 128 56 0 0
50 64 0 0 208 2 0 0
16 0 0 0 15 1 1 0
0 64 0 0 0 0 0 0
1 64 0 0 0 0 0 0
2 64 0 0 0 0 0 0
3 64 0 0 0 0 0 0
11 1 63 0 12 1 63 0
10 1 31 0 4 1 5 0
6 64 0 0 1 0 0 0
5 64 0 0 192 0 0 0
4 64 0 0 6 0 0 0
9 1 128 255 5 1 1 0
7 1 0 0 0 1 0 0
1 1 0 0 3 1 1 0
2 1 1 0 31 1 1 0
16 64 0 0 0 0 1 0
17 64 0 0 0 0 0 0
18 64 0 0 0 0 0 0
19 64 0 0 0 0 0 0
27 1 31 0 28 1 31 0
26 1 31 0 18 1 31 0
17 1 31 0 19 1 15 0
22 64 0 0 0 2 0 0
21 64 0 0 0 8 0 0
20 64 0 0 16 0 0 0

main_split_1_flash u1 [744480]
00000000: 0000 0000 0000 0000 0000 0000 0000 0000
00000010: 0000 0000 0000 0000 0000 0000 0000 0000
00000020: 0000 0000 0000 0000 0000 0000 0000 0000
00000030: 0000 0000 0000 0000 0000 0000 0000 0000
00000040: 0000 0000 0000 0000 0000 0000 0000 0000
00000050: 0000 0000 0000 0000 0000 0000 0000 0000
00000060: 0000 0000 0000 0000 0000 0000 0000 0000
00000070: 0000 0000 0000 0000 0000 0000 0000 0000
00000080: 0000 0000 0000 0000 0000 0000 0000 0000
00000090: 0000 0000 0000 0000 0000 0000 0000 0000
000000a0: 0000 0000 0000 0000 0000 0000 0000 0000
000000b0: 0000 0000 0000 0000 0000 0000 0000 0000
000000c0: 0000 0000 0000 0000 0000 0000 0000 0000
000000d0: 0000 0000 0000 0000 0000 0000 0000 0000
000000e0: 0000 0000 0000 0000 0000 0000 0000 0000
000000f0: 0000 0000 0000 0000 0000 0000 0000 0000
0 0 0 0 0 0 0 0
0 0 0 0 0 0 0 0
0 0 0 0 0 0 0 0
0 0 0 0 0 0 0 0
0 0 0 0 0 0 0 0
0 0 0 0 0 0 0 0
0 0 0 0 0 0 0 0
0 0 0 0 0 0 0 0
0 0 0 0 0 0 0 0
0 0 0 0 0 0 0 0
0 0 0 0 0 0 0 0
0 0 0 0 0 0 0 0
0 0 0 0 0 0 0 0
0 0 0 0 0 0 0 0
0 0 0 0 0 0 0 0
0 0 0 0 0 0 0 0
0 0 0 0 0 0 0 0
0 0 0 0 0 0 0 0
0 0 0 0 0 0 0 0
0 0 0 0 0 0 0 0
0 0 0 0 0 0 0 0
0 0 0 0 0 0 0 0
0 0 0 0 0 0 0 0
0 0 0 0 0 0 0 0
0 0 0 0 0 0 0 0
0 0 0 0 0 0 0 0
0 0 0 0 0 0 0 0
0 0 0 0 0 0 0 0
0 0 0 0 0 0 0 0
0 0 0 0 0 0 0 0
0 0 0 0 0 0 0 0
0 0 0 0 0 0 0 0

main_split_2_command_stream u1 [36352]
00000000: 434f 5031 0100 1000 0610 0000 0000 0610
00000010: 0500 0000 0500 0000 0500 0000 0200 7823
00000020: 2540 0d00 8296 085f 2640 0000 0000 0000
00000030: 2440 3100 d856 3a44 0f01 0100 0040 0000
00000040: 0000 0000 0140 0000 0000 0000 0240 0000
00000050: 0000 0000 0340 0000 0000 0000 0b01 0f00
00000060: 0c01 0f00 0a01 0f00 0401 7f00 0640 0000
00000070: 0100 0000 0540 0000 0008 0000 0440 0000
00000080: 8000 0000 0901 b8ff 0501 0102 0701 0000
00000090: 1f01 0100 1040 0000 0080 0000 1140 0000
000000a0: 0000 0000 1240 0000 0000 0000 1340 0000
000000b0: 0000 0000 1b01 0f00 1c01 0f00 1a01 0f00
000000c0: 1201 0f00 1101 0f00 1301 7f00 1640 0000
000000d0: 0001 0000 1540 0000 0008 0000 1440 0000
000000e0: 1000 0000 1801 b6ff 1401 4101 2501 0000
000000f0: 2601 80ff 2701 7f00 1601 0b00 1501 0f00
67 79 80 49 1 0 16 0
6 16 0 0 0 0 6 16
5 0 0 0 5 0 0 0
5 0 0 0 2 0 120 35
37 64 13 0 130 150 8 95
38 64 0 0 0 0 0 0
36 64 49 0 216 86 58 68
15 1 1 0 0 64 0 0
0 0 0 0 1 64 0 0
0 0 0 0 2 64 0 0
0 0 0 0 3 64 0 0
0 0 0 0 11 1 15 0
12 1 15 0 10 1 15 0
4 1 127 0 6 64 0 0
1 0 0 0 5 64 0 0
0 8 0 0 4 64 0 0
128 0 0 0 9 1 184 255
5 1 1 2 7 1 0 0
31 1 1 0 16 64 0 0
0 128 0 0 17 64 0 0
0 0 0 0 18 64 0 0
0 0 0 0 19 64 0 0
0 0 0 0 27 1 15 0
28 1 15 0 26 1 15 0
18 1 15 0 17 1 15 0
19 1 127 0 22 64 0 0
0 1 0 0 21 64 0 0
0 8 0 0 20 64 0 0
16 0 0 0 24 1 182 255
20 1 65 1 37 1 0 0
38 1 128 255 39 1 127 0
22 1 11 0 21 1 15 0
